program(1.0)
[buildInfo = dict<tensor<string, []>, tensor<string, []>>({{"coremlc-component-MIL", "3405.2.1"}, {"coremlc-version", "3404.23.1"}, {"coremltools-component-torch", "2.3.0"}, {"coremltools-source-dialect", "TorchScript"}, {"coremltools-version", "7.2.1"}})]
{
    func main<ios17>(tensor<fp32, [1, 3, 392, 518]> image) {
            tensor<string, []> image_to_fp16_dtype_0 = const()[name = tensor<string, []>("image_to_fp16_dtype_0"), val = tensor<string, []>("fp16")];
            tensor<fp16, [3, 1, 1]> mean_to_fp16 = const()[name = tensor<string, []>("mean_to_fp16"), val = tensor<fp16, [3, 1, 1]>([[[0x1.eecp+6]], [[0x1.d1p+6]], [[0x1.9ep+6]]])];
            tensor<fp16, [1, 3, 392, 518]> cast_86 = cast(dtype = image_to_fp16_dtype_0, x = image)[name = tensor<string, []>("cast_86")];
            tensor<fp16, [1, 3, 392, 518]> tensor_cast_fp16 = sub(x = cast_86, y = mean_to_fp16)[name = tensor<string, []>("tensor_cast_fp16")];
            tensor<fp16, [3, 1, 1]> _inversed_pixel_values_3_y_0_to_fp16 = const()[name = tensor<string, []>("_inversed_pixel_values_3_y_0_to_fp16"), val = tensor<fp16, [3, 1, 1]>([[[0x1.188p-6]], [[0x1.1ecp-6]], [[0x1.1d8p-6]]])];
            tensor<fp16, [1, 3, 392, 518]> _inversed_pixel_values_3_cast_fp16 = mul(x = tensor_cast_fp16, y = _inversed_pixel_values_3_y_0_to_fp16)[name = tensor<string, []>("_inversed_pixel_values_3_cast_fp16")];
            tensor<int32, []> var_44 = const()[name = tensor<string, []>("op_44"), val = tensor<int32, []>(1)];
            tensor<int32, [2]> var_76 = const()[name = tensor<string, []>("op_76"), val = tensor<int32, [2]>([14, 14])];
            tensor<int32, [2]> var_78 = const()[name = tensor<string, []>("op_78"), val = tensor<int32, [2]>([1, 1])];
            tensor<string, []> var_80_pad_type_0 = const()[name = tensor<string, []>("op_80_pad_type_0"), val = tensor<string, []>("custom")];
            tensor<int32, [4]> var_80_pad_0 = const()[name = tensor<string, []>("op_80_pad_0"), val = tensor<int32, [4]>([0, 0, 0, 0])];
            tensor<fp16, [384, 3, 14, 14]> model_backbone_embeddings_patch_embeddings_projection_weight_to_fp16 = const()[name = tensor<string, []>("model_backbone_embeddings_patch_embeddings_projection_weight_to_fp16"), val = tensor<fp16, [384, 3, 14, 14]>(BLOBFILE(path = tensor<string, []>("@model_path/weights/weight.bin"), offset = tensor<uint64, []>(64)))];
            tensor<fp16, [384]> model_backbone_embeddings_patch_embeddings_projection_bias_to_fp16 = const()[name = tensor<string, []>("model_backbone_embeddings_patch_embeddings_projection_bias_to_fp16"), val = tensor<fp16, [384]>(BLOBFILE(path = tensor<string, []>("@model_path/weights/weight.bin"), offset = tensor<uint64, []>(451712)))];
            tensor<fp16, [1, 384, 28, 37]> var_80_cast_fp16 = conv(bias = model_backbone_embeddings_patch_embeddings_projection_bias_to_fp16, dilations = var_78, groups = var_44, pad = var_80_pad_0, pad_type = var_80_pad_type_0, strides = var_76, weight = model_backbone_embeddings_patch_embeddings_projection_weight_to_fp16, x = _inversed_pixel_values_3_cast_fp16)[name = tensor<string, []>("op_80_cast_fp16")];
            tensor<int32, [3]> concat_0 = const()[name = tensor<string, []>("concat_0"), val = tensor<int32, [3]>([1, 384, 1036])];
            tensor<fp16, [1, 384, 1036]> var_81_cast_fp16 = reshape(shape = concat_0, x = var_80_cast_fp16)[name = tensor<string, []>("op_81_cast_fp16")];
            tensor<int32, [3]> embeddings_1_perm_0 = const()[name = tensor<string, []>("embeddings_1_perm_0"), val = tensor<int32, [3]>([0, 2, 1])];
            tensor<bool, []> embeddings_3_interleave_0 = const()[name = tensor<string, []>("embeddings_3_interleave_0"), val = tensor<bool, []>(false)];
            tensor<fp16, [1, 1, 384]> model_backbone_embeddings_cls_token_to_fp16 = const()[name = tensor<string, []>("model_backbone_embeddings_cls_token_to_fp16"), val = tensor<fp16, [1, 1, 384]>(BLOBFILE(path = tensor<string, []>("@model_path/weights/weight.bin"), offset = tensor<uint64, []>(452544)))];
            tensor<fp16, [1, 1036, 384]> transpose_22 = transpose(perm = embeddings_1_perm_0, x = var_81_cast_fp16)[name = tensor<string, []>("transpose_22")];
            tensor<fp16, [1, 1037, 384]> embeddings_3_cast_fp16 = concat(axis = var_44, interleave = embeddings_3_interleave_0, values = (model_backbone_embeddings_cls_token_to_fp16, transpose_22))[name = tensor<string, []>("embeddings_3_cast_fp16")];
            tensor<fp32, []> var_98_scale_factor_height_0 = const()[name = tensor<string, []>("op_98_scale_factor_height_0"), val = tensor<fp32, []>(0x1.84d7ep-1)];
            tensor<fp32, []> var_98_scale_factor_width_0 = const()[name = tensor<string, []>("op_98_scale_factor_width_0"), val = tensor<fp32, []>(0x1.00b12p+0)];
            tensor<bool, []> var_98_align_corners_0 = const()[name = tensor<string, []>("op_98_align_corners_0"), val = tensor<bool, []>(false)];
            tensor<fp16, [1, 384, 37, 37]> input_1_to_fp16 = const()[name = tensor<string, []>("input_1_to_fp16"), val = tensor<fp16, [1, 384, 37, 37]>(BLOBFILE(path = tensor<string, []>("@model_path/weights/weight.bin"), offset = tensor<uint64, []>(453376)))];
            tensor<fp16, [1, 384, 28, 37]> var_98_cast_fp16 = upsample_bilinear(align_corners = var_98_align_corners_0, scale_factor_height = var_98_scale_factor_height_0, scale_factor_width = var_98_scale_factor_width_0, x = input_1_to_fp16)[name = tensor<string, []>("op_98_cast_fp16")];
            tensor<int32, [4]> var_100 = const()[name = tensor<string, []>("op_100"), val = tensor<int32, [4]>([0, 2, 3, 1])];
            tensor<int32, [3]> var_102 = const()[name = tensor<string, []>("op_102"), val = tensor<int32, [3]>([1, -1, 384])];
            tensor<fp16, [1, 28, 37, 384]> transpose_21 = transpose(perm = var_100, x = var_98_cast_fp16)[name = tensor<string, []>("transpose_21")];
            tensor<fp16, [1, 1036, 384]> patch_pos_embed_cast_fp16 = reshape(shape = var_102, x = transpose_21)[name = tensor<string, []>("patch_pos_embed_cast_fp16")];
            tensor<bool, []> var_106_interleave_0 = const()[name = tensor<string, []>("op_106_interleave_0"), val = tensor<bool, []>(false)];
            tensor<fp16, [1, 1037, 384]> var_106_cast_fp16 = concat(axis = var_44, interleave = var_106_interleave_0, values = (model_backbone_embeddings_cls_token_to_fp16, patch_pos_embed_cast_fp16))[name = tensor<string, []>("op_106_cast_fp16")];
            tensor<fp16, [1, 1037, 384]> input_3_cast_fp16 = add(x = embeddings_3_cast_fp16, y = var_106_cast_fp16)[name = tensor<string, []>("input_3_cast_fp16")];
            tensor<int32, [3]> var_112 = const()[name = tensor<string, []>("op_112"), val = tensor<int32, [3]>([0, 2, 1])];
            tensor<int32, [1]> inputs_1_axes_0 = const()[name = tensor<string, []>("inputs_1_axes_0"), val = tensor<int32, [1]>([2])];
            tensor<fp16, [1, 384, 1037]> transpose_20 = transpose(perm = var_112, x = input_3_cast_fp16)[name = tensor<string, []>("transpose_20")];
            tensor<fp16, [1, 384, 1, 1037]> inputs_1_cast_fp16 = expand_dims(axes = inputs_1_axes_0, x = transpose_20)[name = tensor<string, []>("inputs_1_cast_fp16")];
            tensor<int32, [1]> input_5_axes_0 = const()[name = tensor<string, []>("input_5_axes_0"), val = tensor<int32, [1]>([1])];
            tensor<fp16, [384]> input_5_gamma_0_to_fp16 = const()[name = tensor<string, []>("input_5_gamma_0_to_fp16"), val = tensor<fp16, [384]>(BLOBFILE(path = tensor<string, []>("@model_path/weights/weight.bin"), offset = tensor<uint64, []>(1504832)))];
            tensor<fp16, [384]> input_5_beta_0_to_fp16 = const()[name = tensor<string, []>("input_5_beta_0_to_fp16"), val = tensor<fp16, [384]>(BLOBFILE(path = tensor<string, []>("@model_path/weights/weight.bin"), offset = tensor<uint64, []>(1505664)))];
            tensor<fp16, []> var_153_to_fp16 = const()[name = tensor<string, []>("op_153_to_fp16"), val = tensor<fp16, []>(0x1.1p-20)];
            tensor<fp16, [1, 384, 1, 1037]> input_5_cast_fp16 = layer_norm(axes = input_5_axes_0, beta = input_5_beta_0_to_fp16, epsilon = var_153_to_fp16, gamma = input_5_gamma_0_to_fp16, x = inputs_1_cast_fp16)[name = tensor<string, []>("input_5_cast_fp16")];
            tensor<int32, [2]> var_170 = const()[name = tensor<string, []>("op_170"), val = tensor<int32, [2]>([1, 1])];
            tensor<int32, [2]> var_172 = const()[name = tensor<string, []>("op_172"), val = tensor<int32, [2]>([1, 1])];
            tensor<string, []> k_1_pad_type_0 = const()[name = tensor<string, []>("k_1_pad_type_0"), val = tensor<string, []>("custom")];
            tensor<int32, [4]> k_1_pad_0 = const()[name = tensor<string, []>("k_1_pad_0"), val = tensor<int32, [4]>([0, 0, 0, 0])];
            tensor<fp16, [384, 384, 1, 1]> model_backbone_encoder_layer_0_attention_attention_key_weight_to_fp16 = const()[name = tensor<string, []>("model_backbone_encoder_layer_0_attention_attention_key_weight_to_fp16"), val = tensor<fp16, [384, 384, 1, 1]>(BLOBFILE(path = tensor<string, []>("@model_path/weights/weight.bin"), offset = tensor<uint64, []>(1506496)))];
            tensor<fp16, [384]> model_backbone_encoder_layer_0_attention_attention_key_bias_to_fp16 = const()[name = tensor<string, []>("model_backbone_encoder_layer_0_attention_attention_key_bias_to_fp16"), val = tensor<fp16, [384]>(BLOBFILE(path = tensor<string, []>("@model_path/weights/weight.bin"), offset = tensor<uint64, []>(1801472)))];
            tensor<fp16, [1, 384, 1, 1037]> k_1_cast_fp16 = conv(bias = model_backbone_encoder_layer_0_attention_attention_key_bias_to_fp16, dilations = var_172, groups = var_44, pad = k_1_pad_0, pad_type = k_1_pad_type_0, strides = var_170, weight = model_backbone_encoder_layer_0_attention_attention_key_weight_to_fp16, x = input_5_cast_fp16)[name = tensor<string, []>("k_1_cast_fp16")];
            tensor<int32, [2]> var_177 = const()[name = tensor<string, []>("op_177"), val = tensor<int32, [2]>([1, 1])];
            tensor<int32, [2]> var_179 = const()[name = tensor<string, []>("op_179"), val = tensor<int32, [2]>([1, 1])];
            tensor<string, []> v_1_pad_type_0 = const()[name = tensor<string, []>("v_1_pad_type_0"), val = tensor<string, []>("custom")];
            tensor<int32, [4]> v_1_pad_0 = const()[name = tensor<string, []>("v_1_pad_0"), val = tensor<int32, [4]>([0, 0, 0, 0])];
            tensor<fp16, [384, 384, 1, 1]> model_backbone_encoder_layer_0_attention_attention_value_weight_to_fp16 = const()[name = tensor<string, []>("model_backbone_encoder_layer_0_attention_attention_value_weight_to_fp16"), val = tensor<fp16, [384, 384, 1, 1]>(BLOBFILE(path = tensor<string, []>("@model_path/weights/weight.bin"), offset = tensor<uint64, []>(1802304)))];
            tensor<fp16, [384]> model_backbone_encoder_layer_0_attention_attention_value_bias_to_fp16 = const()[name = tensor<string, []>("model_backbone_encoder_layer_0_attention_attention_value_bias_to_fp16"), val = tensor<fp16, [384]>(BLOBFILE(path = tensor<string, []>("@model_path/weights/weight.bin"), offset = tensor<uint64, []>(2097280)))];
            tensor<fp16, [1, 384, 1, 1037]> v_1_cast_fp16 = conv(bias = model_backbone_encoder_layer_0_attention_attention_value_bias_to_fp16, dilations = var_179, groups = var_44, pad = v_1_pad_0, pad_type = v_1_pad_type_0, strides = var_177, weight = model_backbone_encoder_layer_0_attention_attention_value_weight_to_fp16, x = input_5_cast_fp16)[name = tensor<string, []>("v_1_cast_fp16")];
            tensor<int32, [2]> var_184 = const()[name = tensor<string, []>("op_184"), val = tensor<int32, [2]>([1, 1])];
            tensor<int32, [2]> var_186 = const()[name = tensor<string, []>("op_186"), val = tensor<int32, [2]>([1, 1])];
            tensor<string, []> q_1_pad_type_0 = const()[name = tensor<string, []>("q_1_pad_type_0"), val = tensor<string, []>("custom")];
            tensor<int32, [4]> q_1_pad_0 = const()[name = tensor<string, []>("q_1_pad_0"), val = tensor<int32, [4]>([0, 0, 0, 0])];
            tensor<fp16, [384, 384, 1, 1]> model_backbone_encoder_layer_0_attention_attention_query_weight_to_fp16 = const()[name = tensor<string, []>("model_backbone_encoder_layer_0_attention_attention_query_weight_to_fp16"), val = tensor<fp16, [384, 384, 1, 1]>(BLOBFILE(path = tensor<string, []>("@model_path/weights/weight.bin"), offset = tensor<uint64, []>(2098112)))];
            tensor<fp16, [384]> model_backbone_encoder_layer_0_attention_attention_query_bias_to_fp16 = const()[name = tensor<string, []>("model_backbone_encoder_layer_0_attention_attention_query_bias_to_fp16"), val = tensor<fp16, [384]>(BLOBFILE(path = tensor<string, []>("@model_path/weights/weight.bin"), offset = tensor<uint64, []>(2393088)))];
            tensor<fp16, [1, 384, 1, 1037]> q_1_cast_fp16 = conv(bias = model_backbone_encoder_layer_0_attention_attention_query_bias_to_fp16, dilations = var_186, groups = var_44, pad = q_1_pad_0, pad_type = q_1_pad_type_0, strides = var_184, weight = model_backbone_encoder_layer_0_attention_attention_query_weight_to_fp16, x = input_5_cast_fp16)[name = tensor<string, []>("q_1_cast_fp16")];
            tensor<int32, [4]> var_190_begin_0 = const()[name = tensor<string, []>("op_190_begin_0"), val = tensor<int32, [4]>([0, 0, 0, 0])];
            tensor<int32, [4]> var_190_end_0 = const()[name = tensor<string, []>("op_190_end_0"), val = tensor<int32, [4]>([1, 64, 1, 1037])];
            tensor<bool, [4]> var_190_end_mask_0 = const()[name = tensor<string, []>("op_190_end_mask_0"), val = tensor<bool, [4]>([true, false, true, true])];
            tensor<fp16, [1, 64, 1, 1037]> var_190_cast_fp16 = slice_by_index(begin = var_190_begin_0, end = var_190_end_0, end_mask = var_190_end_mask_0, x = q_1_cast_fp16)[name = tensor<string, []>("op_190_cast_fp16")];
            tensor<int32, [4]> var_194_begin_0 = const()[name = tensor<string, []>("op_194_begin_0"), val = tensor<int32, [4]>([0, 64, 0, 0])];
            tensor<int32, [4]> var_194_end_0 = const()[name = tensor<string, []>("op_194_end_0"), val = tensor<int32, [4]>([1, 128, 1, 1037])];
            tensor<bool, [4]> var_194_end_mask_0 = const()[name = tensor<string, []>("op_194_end_mask_0"), val = tensor<bool, [4]>([true, false, true, true])];
            tensor<fp16, [1, 64, 1, 1037]> var_194_cast_fp16 = slice_by_index(begin = var_194_begin_0, end = var_194_end_0, end_mask = var_194_end_mask_0, x = q_1_cast_fp16)[name = tensor<string, []>("op_194_cast_fp16")];
            tensor<int32, [4]> var_198_begin_0 = const()[name = tensor<string, []>("op_198_begin_0"), val = tensor<int32, [4]>([0, 128, 0, 0])];
            tensor<int32, [4]> var_198_end_0 = const()[name = tensor<string, []>("op_198_end_0"), val = tensor<int32, [4]>([1, 192, 1, 1037])];
            tensor<bool, [4]> var_198_end_mask_0 = const()[name = tensor<string, []>("op_198_end_mask_0"), val = tensor<bool, [4]>([true, false, true, true])];
            tensor<fp16, [1, 64, 1, 1037]> var_198_cast_fp16 = slice_by_index(begin = var_198_begin_0, end = var_198_end_0, end_mask = var_198_end_mask_0, x = q_1_cast_fp16)[name = tensor<string, []>("op_198_cast_fp16")];
            tensor<int32, [4]> var_202_begin_0 = const()[name = tensor<string, []>("op_202_begin_0"), val = tensor<int32, [4]>([0, 192, 0, 0])];
            tensor<int32, [4]> var_202_end_0 = const()[name = tensor<string, []>("op_202_end_0"), val = tensor<int32, [4]>([1, 256, 1, 1037])];
            tensor<bool, [4]> var_202_end_mask_0 = const()[name = tensor<string, []>("op_202_end_mask_0"), val = tensor<bool, [4]>([true, false, true, true])];
            tensor<fp16, [1, 64, 1, 1037]> var_202_cast_fp16 = slice_by_index(begin = var_202_begin_0, end = var_202_end_0, end_mask = var_202_end_mask_0, x = q_1_cast_fp16)[name = tensor<string, []>("op_202_cast_fp16")];
            tensor<int32, [4]> var_206_begin_0 = const()[name = tensor<string, []>("op_206_begin_0"), val = tensor<int32, [4]>([0, 256, 0, 0])];
            tensor<int32, [4]> var_206_end_0 = const()[name = tensor<string, []>("op_206_end_0"), val = tensor<int32, [4]>([1, 320, 1, 1037])];
            tensor<bool, [4]> var_206_end_mask_0 = const()[name = tensor<string, []>("op_206_end_mask_0"), val = tensor<bool, [4]>([true, false, true, true])];
            tensor<fp16, [1, 64, 1, 1037]> var_206_cast_fp16 = slice_by_index(begin = var_206_begin_0, end = var_206_end_0, end_mask = var_206_end_mask_0, x = q_1_cast_fp16)[name = tensor<string, []>("op_206_cast_fp16")];
            tensor<int32, [4]> var_210_begin_0 = const()[name = tensor<string, []>("op_210_begin_0"), val = tensor<int32, [4]>([0, 320, 0, 0])];
            tensor<int32, [4]> var_210_end_0 = const()[name = tensor<string, []>("op_210_end_0"), val = tensor<int32, [4]>([1, 384, 1, 1037])];
            tensor<bool, [4]> var_210_end_mask_0 = const()[name = tensor<string, []>("op_210_end_mask_0"), val = tensor<bool, [4]>([true, false, true, true])];
            tensor<fp16, [1, 64, 1, 1037]> var_210_cast_fp16 = slice_by_index(begin = var_210_begin_0, end = var_210_end_0, end_mask = var_210_end_mask_0, x = q_1_cast_fp16)[name = tensor<string, []>("op_210_cast_fp16")];
            tensor<int32, [4]> k_3_perm_0 = const()[name = tensor<string, []>("k_3_perm_0"), val = tensor<int32, [4]>([0, 3, 2, 1])];
            tensor<int32, [4]> var_217_begin_0 = const()[name = tensor<string, []>("op_217_begin_0"), val = tensor<int32, [4]>([0, 0, 0, 0])];
            tensor<int32, [4]> var_217_end_0 = const()[name = tensor<string, []>("op_217_end_0"), val = tensor<int32, [4]>([1, 1037, 1, 64])];
            tensor<bool, [4]> var_217_end_mask_0 = const()[name = tensor<string, []>("op_217_end_mask_0"), val = tensor<bool, [4]>([true, true, true, false])];
            tensor<fp16, [1, 1037, 1, 384]> transpose_19 = transpose(perm = k_3_perm_0, x = k_1_cast_fp16)[name = tensor<string, []>("transpose_19")];
            tensor<fp16, [1, 1037, 1, 64]> var_217_cast_fp16 = slice_by_index(begin = var_217_begin_0, end = var_217_end_0, end_mask = var_217_end_mask_0, x = transpose_19)[name = tensor<string, []>("op_217_cast_fp16")];
            tensor<int32, [4]> var_221_begin_0 = const()[name = tensor<string, []>("op_221_begin_0"), val = tensor<int32, [4]>([0, 0, 0, 64])];
            tensor<int32, [4]> var_221_end_0 = const()[name = tensor<string, []>("op_221_end_0"), val = tensor<int32, [4]>([1, 1037, 1, 128])];
            tensor<bool, [4]> var_221_end_mask_0 = const()[name = tensor<string, []>("op_221_end_mask_0"), val = tensor<bool, [4]>([true, true, true, false])];
            tensor<fp16, [1, 1037, 1, 64]> var_221_cast_fp16 = slice_by_index(begin = var_221_begin_0, end = var_221_end_0, end_mask = var_221_end_mask_0, x = transpose_19)[name = tensor<string, []>("op_221_cast_fp16")];
            tensor<int32, [4]> var_225_begin_0 = const()[name = tensor<string, []>("op_225_begin_0"), val = tensor<int32, [4]>([0, 0, 0, 128])];
            tensor<int32, [4]> var_225_end_0 = const()[name = tensor<string, []>("op_225_end_0"), val = tensor<int32, [4]>([1, 1037, 1, 192])];
            tensor<bool, [4]> var_225_end_mask_0 = const()[name = tensor<string, []>("op_225_end_mask_0"), val = tensor<bool, [4]>([true, true, true, false])];
            tensor<fp16, [1, 1037, 1, 64]> var_225_cast_fp16 = slice_by_index(begin = var_225_begin_0, end = var_225_end_0, end_mask = var_225_end_mask_0, x = transpose_19)[name = tensor<string, []>("op_225_cast_fp16")];
            tensor<int32, [4]> var_229_begin_0 = const()[name = tensor<string, []>("op_229_begin_0"), val = tensor<int32, [4]>([0, 0, 0, 192])];
            tensor<int32, [4]> var_229_end_0 = const()[name = tensor<string, []>("op_229_end_0"), val = tensor<int32, [4]>([1, 1037, 1, 256])];
            tensor<bool, [4]> var_229_end_mask_0 = const()[name = tensor<string, []>("op_229_end_mask_0"), val = tensor<bool, [4]>([true, true, true, false])];
            tensor<fp16, [1, 1037, 1, 64]> var_229_cast_fp16 = slice_by_index(begin = var_229_begin_0, end = var_229_end_0, end_mask = var_229_end_mask_0, x = transpose_19)[name = tensor<string, []>("op_229_cast_fp16")];
            tensor<int32, [4]> var_233_begin_0 = const()[name = tensor<string, []>("op_233_begin_0"), val = tensor<int32, [4]>([0, 0, 0, 256])];
            tensor<int32, [4]> var_233_end_0 = const()[name = tensor<string, []>("op_233_end_0"), val = tensor<int32, [4]>([1, 1037, 1, 320])];
            tensor<bool, [4]> var_233_end_mask_0 = const()[name = tensor<string, []>("op_233_end_mask_0"), val = tensor<bool, [4]>([true, true, true, false])];
            tensor<fp16, [1, 1037, 1, 64]> var_233_cast_fp16 = slice_by_index(begin = var_233_begin_0, end = var_233_end_0, end_mask = var_233_end_mask_0, x = transpose_19)[name = tensor<string, []>("op_233_cast_fp16")];
            tensor<int32, [4]> var_237_begin_0 = const()[name = tensor<string, []>("op_237_begin_0"), val = tensor<int32, [4]>([0, 0, 0, 320])];
            tensor<int32, [4]> var_237_end_0 = const()[name = tensor<string, []>("op_237_end_0"), val = tensor<int32, [4]>([1, 1037, 1, 384])];
            tensor<bool, [4]> var_237_end_mask_0 = const()[name = tensor<string, []>("op_237_end_mask_0"), val = tensor<bool, [4]>([true, true, true, false])];
            tensor<fp16, [1, 1037, 1, 64]> var_237_cast_fp16 = slice_by_index(begin = var_237_begin_0, end = var_237_end_0, end_mask = var_237_end_mask_0, x = transpose_19)[name = tensor<string, []>("op_237_cast_fp16")];
            tensor<int32, [4]> var_239_begin_0 = const()[name = tensor<string, []>("op_239_begin_0"), val = tensor<int32, [4]>([0, 0, 0, 0])];
            tensor<int32, [4]> var_239_end_0 = const()[name = tensor<string, []>("op_239_end_0"), val = tensor<int32, [4]>([1, 64, 1, 1037])];
            tensor<bool, [4]> var_239_end_mask_0 = const()[name = tensor<string, []>("op_239_end_mask_0"), val = tensor<bool, [4]>([true, false, true, true])];
            tensor<fp16, [1, 64, 1, 1037]> var_239_cast_fp16 = slice_by_index(begin = var_239_begin_0, end = var_239_end_0, end_mask = var_239_end_mask_0, x = v_1_cast_fp16)[name = tensor<string, []>("op_239_cast_fp16")];
            tensor<int32, [4]> var_243_begin_0 = const()[name = tensor<string, []>("op_243_begin_0"), val = tensor<int32, [4]>([0, 64, 0, 0])];
            tensor<int32, [4]> var_243_end_0 = const()[name = tensor<string, []>("op_243_end_0"), val = tensor<int32, [4]>([1, 128, 1, 1037])];
            tensor<bool, [4]> var_243_end_mask_0 = const()[name = tensor<string, []>("op_243_end_mask_0"), val = tensor<bool, [4]>([true, false, true, true])];
            tensor<fp16, [1, 64, 1, 1037]> var_243_cast_fp16 = slice_by_index(begin = var_243_begin_0, end = var_243_end_0, end_mask = var_243_end_mask_0, x = v_1_cast_fp16)[name = tensor<string, []>("op_243_cast_fp16")];
            tensor<int32, [4]> var_247_begin_0 = const()[name = tensor<string, []>("op_247_begin_0"), val = tensor<int32, [4]>([0, 128, 0, 0])];
            tensor<int32, [4]> var_247_end_0 = const()[name = tensor<string, []>("op_247_end_0"), val = tensor<int32, [4]>([1, 192, 1, 1037])];
            tensor<bool, [4]> var_247_end_mask_0 = const()[name = tensor<string, []>("op_247_end_mask_0"), val = tensor<bool, [4]>([true, false, true, true])];
            tensor<fp16, [1, 64, 1, 1037]> var_247_cast_fp16 = slice_by_index(begin = var_247_begin_0, end = var_247_end_0, end_mask = var_247_end_mask_0, x = v_1_cast_fp16)[name = tensor<string, []>("op_247_cast_fp16")];
            tensor<int32, [4]> var_251_begin_0 = const()[name = tensor<string, []>("op_251_begin_0"), val = tensor<int32, [4]>([0, 192, 0, 0])];
            tensor<int32, [4]> var_251_end_0 = const()[name = tensor<string, []>("op_251_end_0"), val = tensor<int32, [4]>([1, 256, 1, 1037])];
            tensor<bool, [4]> var_251_end_mask_0 = const()[name = tensor<string, []>("op_251_end_mask_0"), val = tensor<bool, [4]>([true, false, true, true])];
            tensor<fp16, [1, 64, 1, 1037]> var_251_cast_fp16 = slice_by_index(begin = var_251_begin_0, end = var_251_end_0, end_mask = var_251_end_mask_0, x = v_1_cast_fp16)[name = tensor<string, []>("op_251_cast_fp16")];
            tensor<int32, [4]> var_255_begin_0 = const()[name = tensor<string, []>("op_255_begin_0"), val = tensor<int32, [4]>([0, 256, 0, 0])];
            tensor<int32, [4]> var_255_end_0 = const()[name = tensor<string, []>("op_255_end_0"), val = tensor<int32, [4]>([1, 320, 1, 1037])];
            tensor<bool, [4]> var_255_end_mask_0 = const()[name = tensor<string, []>("op_255_end_mask_0"), val = tensor<bool, [4]>([true, false, true, true])];
            tensor<fp16, [1, 64, 1, 1037]> var_255_cast_fp16 = slice_by_index(begin = var_255_begin_0, end = var_255_end_0, end_mask = var_255_end_mask_0, x = v_1_cast_fp16)[name = tensor<string, []>("op_255_cast_fp16")];
            tensor<int32, [4]> var_259_begin_0 = const()[name = tensor<string, []>("op_259_begin_0"), val = tensor<int32, [4]>([0, 320, 0, 0])];
            tensor<int32, [4]> var_259_end_0 = const()[name = tensor<string, []>("op_259_end_0"), val = tensor<int32, [4]>([1, 384, 1, 1037])];
            tensor<bool, [4]> var_259_end_mask_0 = const()[name = tensor<string, []>("op_259_end_mask_0"), val = tensor<bool, [4]>([true, false, true, true])];
            tensor<fp16, [1, 64, 1, 1037]> var_259_cast_fp16 = slice_by_index(begin = var_259_begin_0, end = var_259_end_0, end_mask = var_259_end_mask_0, x = v_1_cast_fp16)[name = tensor<string, []>("op_259_cast_fp16")];
            tensor<string, []> var_263_equation_0 = const()[name = tensor<string, []>("op_263_equation_0"), val = tensor<string, []>("bkhc,bchq->bkhq")];
            tensor<fp16, [1, 1037, 1, 1037]> var_263_cast_fp16 = einsum(equation = var_263_equation_0, values = (var_217_cast_fp16, var_190_cast_fp16))[name = tensor<string, []>("op_263_cast_fp16")];
            tensor<fp16, []> var_264_to_fp16 = const()[name = tensor<string, []>("op_264_to_fp16"), val = tensor<fp16, []>(0x1p-3)];
            tensor<fp16, [1, 1037, 1, 1037]> aw_1_cast_fp16 = mul(x = var_263_cast_fp16, y = var_264_to_fp16)[name = tensor<string, []>("aw_1_cast_fp16")];
            tensor<string, []> var_267_equation_0 = const()[name = tensor<string, []>("op_267_equation_0"), val = tensor<string, []>("bkhc,bchq->bkhq")];
            tensor<fp16, [1, 1037, 1, 1037]> var_267_cast_fp16 = einsum(equation = var_267_equation_0, values = (var_221_cast_fp16, var_194_cast_fp16))[name = tensor<string, []>("op_267_cast_fp16")];
            tensor<fp16, []> var_268_to_fp16 = const()[name = tensor<string, []>("op_268_to_fp16"), val = tensor<fp16, []>(0x1p-3)];
            tensor<fp16, [1, 1037, 1, 1037]> aw_3_cast_fp16 = mul(x = var_267_cast_fp16, y = var_268_to_fp16)[name = tensor<string, []>("aw_3_cast_fp16")];
            tensor<string, []> var_271_equation_0 = const()[name = tensor<string, []>("op_271_equation_0"), val = tensor<string, []>("bkhc,bchq->bkhq")];
            tensor<fp16, [1, 1037, 1, 1037]> var_271_cast_fp16 = einsum(equation = var_271_equation_0, values = (var_225_cast_fp16, var_198_cast_fp16))[name = tensor<string, []>("op_271_cast_fp16")];
            tensor<fp16, []> var_272_to_fp16 = const()[name = tensor<string, []>("op_272_to_fp16"), val = tensor<fp16, []>(0x1p-3)];
            tensor<fp16, [1, 1037, 1, 1037]> aw_5_cast_fp16 = mul(x = var_271_cast_fp16, y = var_272_to_fp16)[name = tensor<string, []>("aw_5_cast_fp16")];
            tensor<string, []> var_275_equation_0 = const()[name = tensor<string, []>("op_275_equation_0"), val = tensor<string, []>("bkhc,bchq->bkhq")];
            tensor<fp16, [1, 1037, 1, 1037]> var_275_cast_fp16 = einsum(equation = var_275_equation_0, values = (var_229_cast_fp16, var_202_cast_fp16))[name = tensor<string, []>("op_275_cast_fp16")];
            tensor<fp16, []> var_276_to_fp16 = const()[name = tensor<string, []>("op_276_to_fp16"), val = tensor<fp16, []>(0x1p-3)];
            tensor<fp16, [1, 1037, 1, 1037]> aw_7_cast_fp16 = mul(x = var_275_cast_fp16, y = var_276_to_fp16)[name = tensor<string, []>("aw_7_cast_fp16")];
            tensor<string, []> var_279_equation_0 = const()[name = tensor<string, []>("op_279_equation_0"), val = tensor<string, []>("bkhc,bchq->bkhq")];
            tensor<fp16, [1, 1037, 1, 1037]> var_279_cast_fp16 = einsum(equation = var_279_equation_0, values = (var_233_cast_fp16, var_206_cast_fp16))[name = tensor<string, []>("op_279_cast_fp16")];
            tensor<fp16, []> var_280_to_fp16 = const()[name = tensor<string, []>("op_280_to_fp16"), val = tensor<fp16, []>(0x1p-3)];
            tensor<fp16, [1, 1037, 1, 1037]> aw_9_cast_fp16 = mul(x = var_279_cast_fp16, y = var_280_to_fp16)[name = tensor<string, []>("aw_9_cast_fp16")];
            tensor<string, []> var_283_equation_0 = const()[name = tensor<string, []>("op_283_equation_0"), val = tensor<string, []>("bkhc,bchq->bkhq")];
            tensor<fp16, [1, 1037, 1, 1037]> var_283_cast_fp16 = einsum(equation = var_283_equation_0, values = (var_237_cast_fp16, var_210_cast_fp16))[name = tensor<string, []>("op_283_cast_fp16")];
            tensor<fp16, []> var_284_to_fp16 = const()[name = tensor<string, []>("op_284_to_fp16"), val = tensor<fp16, []>(0x1p-3)];
            tensor<fp16, [1, 1037, 1, 1037]> aw_11_cast_fp16 = mul(x = var_283_cast_fp16, y = var_284_to_fp16)[name = tensor<string, []>("aw_11_cast_fp16")];
            tensor<fp16, [1, 1037, 1, 1037]> var_286_cast_fp16 = softmax(axis = var_44, x = aw_1_cast_fp16)[name = tensor<string, []>("op_286_cast_fp16")];
            tensor<fp16, [1, 1037, 1, 1037]> var_287_cast_fp16 = softmax(axis = var_44, x = aw_3_cast_fp16)[name = tensor<string, []>("op_287_cast_fp16")];
            tensor<fp16, [1, 1037, 1, 1037]> var_288_cast_fp16 = softmax(axis = var_44, x = aw_5_cast_fp16)[name = tensor<string, []>("op_288_cast_fp16")];
            tensor<fp16, [1, 1037, 1, 1037]> var_289_cast_fp16 = softmax(axis = var_44, x = aw_7_cast_fp16)[name = tensor<string, []>("op_289_cast_fp16")];
            tensor<fp16, [1, 1037, 1, 1037]> var_290_cast_fp16 = softmax(axis = var_44, x = aw_9_cast_fp16)[name = tensor<string, []>("op_290_cast_fp16")];
            tensor<fp16, [1, 1037, 1, 1037]> var_291_cast_fp16 = softmax(axis = var_44, x = aw_11_cast_fp16)[name = tensor<string, []>("op_291_cast_fp16")];
            tensor<string, []> var_293_equation_0 = const()[name = tensor<string, []>("op_293_equation_0"), val = tensor<string, []>("bchk,bkhq->bchq")];
            tensor<fp16, [1, 64, 1, 1037]> var_293_cast_fp16 = einsum(equation = var_293_equation_0, values = (var_239_cast_fp16, var_286_cast_fp16))[name = tensor<string, []>("op_293_cast_fp16")];
            tensor<string, []> var_295_equation_0 = const()[name = tensor<string, []>("op_295_equation_0"), val = tensor<string, []>("bchk,bkhq->bchq")];
            tensor<fp16, [1, 64, 1, 1037]> var_295_cast_fp16 = einsum(equation = var_295_equation_0, values = (var_243_cast_fp16, var_287_cast_fp16))[name = tensor<string, []>("op_295_cast_fp16")];
            tensor<string, []> var_297_equation_0 = const()[name = tensor<string, []>("op_297_equation_0"), val = tensor<string, []>("bchk,bkhq->bchq")];
            tensor<fp16, [1, 64, 1, 1037]> var_297_cast_fp16 = einsum(equation = var_297_equation_0, values = (var_247_cast_fp16, var_288_cast_fp16))[name = tensor<string, []>("op_297_cast_fp16")];
            tensor<string, []> var_299_equation_0 = const()[name = tensor<string, []>("op_299_equation_0"), val = tensor<string, []>("bchk,bkhq->bchq")];
            tensor<fp16, [1, 64, 1, 1037]> var_299_cast_fp16 = einsum(equation = var_299_equation_0, values = (var_251_cast_fp16, var_289_cast_fp16))[name = tensor<string, []>("op_299_cast_fp16")];
            tensor<string, []> var_301_equation_0 = const()[name = tensor<string, []>("op_301_equation_0"), val = tensor<string, []>("bchk,bkhq->bchq")];
            tensor<fp16, [1, 64, 1, 1037]> var_301_cast_fp16 = einsum(equation = var_301_equation_0, values = (var_255_cast_fp16, var_290_cast_fp16))[name = tensor<string, []>("op_301_cast_fp16")];
            tensor<string, []> var_303_equation_0 = const()[name = tensor<string, []>("op_303_equation_0"), val = tensor<string, []>("bchk,bkhq->bchq")];
            tensor<fp16, [1, 64, 1, 1037]> var_303_cast_fp16 = einsum(equation = var_303_equation_0, values = (var_259_cast_fp16, var_291_cast_fp16))[name = tensor<string, []>("op_303_cast_fp16")];
            tensor<bool, []> input_7_interleave_0 = const()[name = tensor<string, []>("input_7_interleave_0"), val = tensor<bool, []>(false)];
            tensor<fp16, [1, 384, 1, 1037]> input_7_cast_fp16 = concat(axis = var_44, interleave = input_7_interleave_0, values = (var_293_cast_fp16, var_295_cast_fp16, var_297_cast_fp16, var_299_cast_fp16, var_301_cast_fp16, var_303_cast_fp16))[name = tensor<string, []>("input_7_cast_fp16")];
            tensor<int32, [2]> var_309 = const()[name = tensor<string, []>("op_309"), val = tensor<int32, [2]>([1, 1])];
            tensor<int32, [2]> var_311 = const()[name = tensor<string, []>("op_311"), val = tensor<int32, [2]>([1, 1])];
            tensor<string, []> input_9_pad_type_0 = const()[name = tensor<string, []>("input_9_pad_type_0"), val = tensor<string, []>("custom")];
            tensor<int32, [4]> input_9_pad_0 = const()[name = tensor<string, []>("input_9_pad_0"), val = tensor<int32, [4]>([0, 0, 0, 0])];
            tensor<fp16, [384, 384, 1, 1]> attention_output_1_weight_0_to_fp16 = const()[name = tensor<string, []>("attention_output_1_weight_0_to_fp16"), val = tensor<fp16, [384, 384, 1, 1]>(BLOBFILE(path = tensor<string, []>("@model_path/weights/weight.bin"), offset = tensor<uint64, []>(2393920)))];
            tensor<fp16, [384]> attention_output_1_bias_0_to_fp16 = const()[name = tensor<string, []>("attention_output_1_bias_0_to_fp16"), val = tensor<fp16, [384]>(BLOBFILE(path = tensor<string, []>("@model_path/weights/weight.bin"), offset = tensor<uint64, []>(2688896)))];
            tensor<fp16, [1, 384, 1, 1037]> attention_output_1_cast_fp16 = conv(bias = attention_output_1_bias_0_to_fp16, dilations = var_311, groups = var_44, pad = input_9_pad_0, pad_type = input_9_pad_type_0, strides = var_309, weight = attention_output_1_weight_0_to_fp16, x = input_7_cast_fp16)[name = tensor<string, []>("attention_output_1_cast_fp16")];
            tensor<fp16, [1, 384, 1, 1037]> inputs_3_cast_fp16 = add(x = attention_output_1_cast_fp16, y = inputs_1_cast_fp16)[name = tensor<string, []>("inputs_3_cast_fp16")];
            tensor<int32, [1]> input_11_axes_0 = const()[name = tensor<string, []>("input_11_axes_0"), val = tensor<int32, [1]>([1])];
            tensor<fp16, [384]> input_11_gamma_0_to_fp16 = const()[name = tensor<string, []>("input_11_gamma_0_to_fp16"), val = tensor<fp16, [384]>(BLOBFILE(path = tensor<string, []>("@model_path/weights/weight.bin"), offset = tensor<uint64, []>(2689728)))];
            tensor<fp16, [384]> input_11_beta_0_to_fp16 = const()[name = tensor<string, []>("input_11_beta_0_to_fp16"), val = tensor<fp16, [384]>(BLOBFILE(path = tensor<string, []>("@model_path/weights/weight.bin"), offset = tensor<uint64, []>(2690560)))];
            tensor<fp16, []> var_329_to_fp16 = const()[name = tensor<string, []>("op_329_to_fp16"), val = tensor<fp16, []>(0x1.1p-20)];
            tensor<fp16, [1, 384, 1, 1037]> input_11_cast_fp16 = layer_norm(axes = input_11_axes_0, beta = input_11_beta_0_to_fp16, epsilon = var_329_to_fp16, gamma = input_11_gamma_0_to_fp16, x = inputs_3_cast_fp16)[name = tensor<string, []>("input_11_cast_fp16")];
            tensor<int32, [2]> var_343 = const()[name = tensor<string, []>("op_343"), val = tensor<int32, [2]>([1, 1])];
            tensor<int32, [2]> var_345 = const()[name = tensor<string, []>("op_345"), val = tensor<int32, [2]>([1, 1])];
            tensor<string, []> input_13_pad_type_0 = const()[name = tensor<string, []>("input_13_pad_type_0"), val = tensor<string, []>("custom")];
            tensor<int32, [4]> input_13_pad_0 = const()[name = tensor<string, []>("input_13_pad_0"), val = tensor<int32, [4]>([0, 0, 0, 0])];
            tensor<fp16, [1536, 384, 1, 1]> model_backbone_encoder_layer_0_mlp_fc1_weight_to_fp16 = const()[name = tensor<string, []>("model_backbone_encoder_layer_0_mlp_fc1_weight_to_fp16"), val = tensor<fp16, [1536, 384, 1, 1]>(BLOBFILE(path = tensor<string, []>("@model_path/weights/weight.bin"), offset = tensor<uint64, []>(2691392)))];
            tensor<fp16, [1536]> model_backbone_encoder_layer_0_mlp_fc1_bias_to_fp16 = const()[name = tensor<string, []>("model_backbone_encoder_layer_0_mlp_fc1_bias_to_fp16"), val = tensor<fp16, [1536]>(BLOBFILE(path = tensor<string, []>("@model_path/weights/weight.bin"), offset = tensor<uint64, []>(3871104)))];
            tensor<fp16, [1, 1536, 1, 1037]> input_13_cast_fp16 = conv(bias = model_backbone_encoder_layer_0_mlp_fc1_bias_to_fp16, dilations = var_345, groups = var_44, pad = input_13_pad_0, pad_type = input_13_pad_type_0, strides = var_343, weight = model_backbone_encoder_layer_0_mlp_fc1_weight_to_fp16, x = input_11_cast_fp16)[name = tensor<string, []>("input_13_cast_fp16")];
            tensor<string, []> input_15_mode_0 = const()[name = tensor<string, []>("input_15_mode_0"), val = tensor<string, []>("EXACT")];
            tensor<fp16, [1, 1536, 1, 1037]> input_15_cast_fp16 = gelu(mode = input_15_mode_0, x = input_13_cast_fp16)[name = tensor<string, []>("input_15_cast_fp16")];
            tensor<int32, [2]> var_351 = const()[name = tensor<string, []>("op_351"), val = tensor<int32, [2]>([1, 1])];
            tensor<int32, [2]> var_353 = const()[name = tensor<string, []>("op_353"), val = tensor<int32, [2]>([1, 1])];
            tensor<string, []> hidden_state_3_pad_type_0 = const()[name = tensor<string, []>("hidden_state_3_pad_type_0"), val = tensor<string, []>("custom")];
            tensor<int32, [4]> hidden_state_3_pad_0 = const()[name = tensor<string, []>("hidden_state_3_pad_0"), val = tensor<int32, [4]>([0, 0, 0, 0])];
            tensor<fp16, [384, 1536, 1, 1]> layer_output_1_weight_0_to_fp16 = const()[name = tensor<string, []>("layer_output_1_weight_0_to_fp16"), val = tensor<fp16, [384, 1536, 1, 1]>(BLOBFILE(path = tensor<string, []>("@model_path/weights/weight.bin"), offset = tensor<uint64, []>(3874240)))];
            tensor<fp16, [384]> layer_output_1_bias_0_to_fp16 = const()[name = tensor<string, []>("layer_output_1_bias_0_to_fp16"), val = tensor<fp16, [384]>(BLOBFILE(path = tensor<string, []>("@model_path/weights/weight.bin"), offset = tensor<uint64, []>(5053952)))];
            tensor<fp16, [1, 384, 1, 1037]> layer_output_1_cast_fp16 = conv(bias = layer_output_1_bias_0_to_fp16, dilations = var_353, groups = var_44, pad = hidden_state_3_pad_0, pad_type = hidden_state_3_pad_type_0, strides = var_351, weight = layer_output_1_weight_0_to_fp16, x = input_15_cast_fp16)[name = tensor<string, []>("layer_output_1_cast_fp16")];
            tensor<fp16, [1, 384, 1, 1037]> inputs_5_cast_fp16 = add(x = layer_output_1_cast_fp16, y = inputs_3_cast_fp16)[name = tensor<string, []>("inputs_5_cast_fp16")];
            tensor<int32, [1]> input_17_axes_0 = const()[name = tensor<string, []>("input_17_axes_0"), val = tensor<int32, [1]>([1])];
            tensor<fp16, [384]> input_17_gamma_0_to_fp16 = const()[name = tensor<string, []>("input_17_gamma_0_to_fp16"), val = tensor<fp16, [384]>(BLOBFILE(path = tensor<string, []>("@model_path/weights/weight.bin"), offset = tensor<uint64, []>(5054784)))];
            tensor<fp16, [384]> input_17_beta_0_to_fp16 = const()[name = tensor<string, []>("input_17_beta_0_to_fp16"), val = tensor<fp16, [384]>(BLOBFILE(path = tensor<string, []>("@model_path/weights/weight.bin"), offset = tensor<uint64, []>(5055616)))];
            tensor<fp16, []> var_376_to_fp16 = const()[name = tensor<string, []>("op_376_to_fp16"), val = tensor<fp16, []>(0x1.1p-20)];
            tensor<fp16, [1, 384, 1, 1037]> input_17_cast_fp16 = layer_norm(axes = input_17_axes_0, beta = input_17_beta_0_to_fp16, epsilon = var_376_to_fp16, gamma = input_17_gamma_0_to_fp16, x = inputs_5_cast_fp16)[name = tensor<string, []>("input_17_cast_fp16")];
            tensor<int32, [2]> var_393 = const()[name = tensor<string, []>("op_393"), val = tensor<int32, [2]>([1, 1])];
            tensor<int32, [2]> var_395 = const()[name = tensor<string, []>("op_395"), val = tensor<int32, [2]>([1, 1])];
            tensor<string, []> k_5_pad_type_0 = const()[name = tensor<string, []>("k_5_pad_type_0"), val = tensor<string, []>("custom")];
            tensor<int32, [4]> k_5_pad_0 = const()[name = tensor<string, []>("k_5_pad_0"), val = tensor<int32, [4]>([0, 0, 0, 0])];
            tensor<fp16, [384, 384, 1, 1]> model_backbone_encoder_layer_1_attention_attention_key_weight_to_fp16 = const()[name = tensor<string, []>("model_backbone_encoder_layer_1_attention_attention_key_weight_to_fp16"), val = tensor<fp16, [384, 384, 1, 1]>(BLOBFILE(path = tensor<string, []>("@model_path/weights/weight.bin"), offset = tensor<uint64, []>(5056448)))];
            tensor<fp16, [384]> model_backbone_encoder_layer_1_attention_attention_key_bias_to_fp16 = const()[name = tensor<string, []>("model_backbone_encoder_layer_1_attention_attention_key_bias_to_fp16"), val = tensor<fp16, [384]>(BLOBFILE(path = tensor<string, []>("@model_path/weights/weight.bin"), offset = tensor<uint64, []>(5351424)))];
            tensor<fp16, [1, 384, 1, 1037]> k_5_cast_fp16 = conv(bias = model_backbone_encoder_layer_1_attention_attention_key_bias_to_fp16, dilations = var_395, groups = var_44, pad = k_5_pad_0, pad_type = k_5_pad_type_0, strides = var_393, weight = model_backbone_encoder_layer_1_attention_attention_key_weight_to_fp16, x = input_17_cast_fp16)[name = tensor<string, []>("k_5_cast_fp16")];
            tensor<int32, [2]> var_400 = const()[name = tensor<string, []>("op_400"), val = tensor<int32, [2]>([1, 1])];
            tensor<int32, [2]> var_402 = const()[name = tensor<string, []>("op_402"), val = tensor<int32, [2]>([1, 1])];
            tensor<string, []> v_3_pad_type_0 = const()[name = tensor<string, []>("v_3_pad_type_0"), val = tensor<string, []>("custom")];
            tensor<int32, [4]> v_3_pad_0 = const()[name = tensor<string, []>("v_3_pad_0"), val = tensor<int32, [4]>([0, 0, 0, 0])];
            tensor<fp16, [384, 384, 1, 1]> model_backbone_encoder_layer_1_attention_attention_value_weight_to_fp16 = const()[name = tensor<string, []>("model_backbone_encoder_layer_1_attention_attention_value_weight_to_fp16"), val = tensor<fp16, [384, 384, 1, 1]>(BLOBFILE(path = tensor<string, []>("@model_path/weights/weight.bin"), offset = tensor<uint64, []>(5352256)))];
            tensor<fp16, [384]> model_backbone_encoder_layer_1_attention_attention_value_bias_to_fp16 = const()[name = tensor<string, []>("model_backbone_encoder_layer_1_attention_attention_value_bias_to_fp16"), val = tensor<fp16, [384]>(BLOBFILE(path = tensor<string, []>("@model_path/weights/weight.bin"), offset = tensor<uint64, []>(5647232)))];
            tensor<fp16, [1, 384, 1, 1037]> v_3_cast_fp16 = conv(bias = model_backbone_encoder_layer_1_attention_attention_value_bias_to_fp16, dilations = var_402, groups = var_44, pad = v_3_pad_0, pad_type = v_3_pad_type_0, strides = var_400, weight = model_backbone_encoder_layer_1_attention_attention_value_weight_to_fp16, x = input_17_cast_fp16)[name = tensor<string, []>("v_3_cast_fp16")];
            tensor<int32, [2]> var_407 = const()[name = tensor<string, []>("op_407"), val = tensor<int32, [2]>([1, 1])];
            tensor<int32, [2]> var_409 = const()[name = tensor<string, []>("op_409"), val = tensor<int32, [2]>([1, 1])];
            tensor<string, []> q_3_pad_type_0 = const()[name = tensor<string, []>("q_3_pad_type_0"), val = tensor<string, []>("custom")];
            tensor<int32, [4]> q_3_pad_0 = const()[name = tensor<string, []>("q_3_pad_0"), val = tensor<int32, [4]>([0, 0, 0, 0])];
            tensor<fp16, [384, 384, 1, 1]> model_backbone_encoder_layer_1_attention_attention_query_weight_to_fp16 = const()[name = tensor<string, []>("model_backbone_encoder_layer_1_attention_attention_query_weight_to_fp16"), val = tensor<fp16, [384, 384, 1, 1]>(BLOBFILE(path = tensor<string, []>("@model_path/weights/weight.bin"), offset = tensor<uint64, []>(5648064)))];
            tensor<fp16, [384]> model_backbone_encoder_layer_1_attention_attention_query_bias_to_fp16 = const()[name = tensor<string, []>("model_backbone_encoder_layer_1_attention_attention_query_bias_to_fp16"), val = tensor<fp16, [384]>(BLOBFILE(path = tensor<string, []>("@model_path/weights/weight.bin"), offset = tensor<uint64, []>(5943040)))];
            tensor<fp16, [1, 384, 1, 1037]> q_3_cast_fp16 = conv(bias = model_backbone_encoder_layer_1_attention_attention_query_bias_to_fp16, dilations = var_409, groups = var_44, pad = q_3_pad_0, pad_type = q_3_pad_type_0, strides = var_407, weight = model_backbone_encoder_layer_1_attention_attention_query_weight_to_fp16, x = input_17_cast_fp16)[name = tensor<string, []>("q_3_cast_fp16")];
            tensor<int32, [4]> var_413_begin_0 = const()[name = tensor<string, []>("op_413_begin_0"), val = tensor<int32, [4]>([0, 0, 0, 0])];
            tensor<int32, [4]> var_413_end_0 = const()[name = tensor<string, []>("op_413_end_0"), val = tensor<int32, [4]>([1, 64, 1, 1037])];
            tensor<bool, [4]> var_413_end_mask_0 = const()[name = tensor<string, []>("op_413_end_mask_0"), val = tensor<bool, [4]>([true, false, true, true])];
            tensor<fp16, [1, 64, 1, 1037]> var_413_cast_fp16 = slice_by_index(begin = var_413_begin_0, end = var_413_end_0, end_mask = var_413_end_mask_0, x = q_3_cast_fp16)[name = tensor<string, []>("op_413_cast_fp16")];
            tensor<int32, [4]> var_417_begin_0 = const()[name = tensor<string, []>("op_417_begin_0"), val = tensor<int32, [4]>([0, 64, 0, 0])];
            tensor<int32, [4]> var_417_end_0 = const()[name = tensor<string, []>("op_417_end_0"), val = tensor<int32, [4]>([1, 128, 1, 1037])];
            tensor<bool, [4]> var_417_end_mask_0 = const()[name = tensor<string, []>("op_417_end_mask_0"), val = tensor<bool, [4]>([true, false, true, true])];
            tensor<fp16, [1, 64, 1, 1037]> var_417_cast_fp16 = slice_by_index(begin = var_417_begin_0, end = var_417_end_0, end_mask = var_417_end_mask_0, x = q_3_cast_fp16)[name = tensor<string, []>("op_417_cast_fp16")];
            tensor<int32, [4]> var_421_begin_0 = const()[name = tensor<string, []>("op_421_begin_0"), val = tensor<int32, [4]>([0, 128, 0, 0])];
            tensor<int32, [4]> var_421_end_0 = const()[name = tensor<string, []>("op_421_end_0"), val = tensor<int32, [4]>([1, 192, 1, 1037])];
            tensor<bool, [4]> var_421_end_mask_0 = const()[name = tensor<string, []>("op_421_end_mask_0"), val = tensor<bool, [4]>([true, false, true, true])];
            tensor<fp16, [1, 64, 1, 1037]> var_421_cast_fp16 = slice_by_index(begin = var_421_begin_0, end = var_421_end_0, end_mask = var_421_end_mask_0, x = q_3_cast_fp16)[name = tensor<string, []>("op_421_cast_fp16")];
            tensor<int32, [4]> var_425_begin_0 = const()[name = tensor<string, []>("op_425_begin_0"), val = tensor<int32, [4]>([0, 192, 0, 0])];
            tensor<int32, [4]> var_425_end_0 = const()[name = tensor<string, []>("op_425_end_0"), val = tensor<int32, [4]>([1, 256, 1, 1037])];
            tensor<bool, [4]> var_425_end_mask_0 = const()[name = tensor<string, []>("op_425_end_mask_0"), val = tensor<bool, [4]>([true, false, true, true])];
            tensor<fp16, [1, 64, 1, 1037]> var_425_cast_fp16 = slice_by_index(begin = var_425_begin_0, end = var_425_end_0, end_mask = var_425_end_mask_0, x = q_3_cast_fp16)[name = tensor<string, []>("op_425_cast_fp16")];
            tensor<int32, [4]> var_429_begin_0 = const()[name = tensor<string, []>("op_429_begin_0"), val = tensor<int32, [4]>([0, 256, 0, 0])];
            tensor<int32, [4]> var_429_end_0 = const()[name = tensor<string, []>("op_429_end_0"), val = tensor<int32, [4]>([1, 320, 1, 1037])];
            tensor<bool, [4]> var_429_end_mask_0 = const()[name = tensor<string, []>("op_429_end_mask_0"), val = tensor<bool, [4]>([true, false, true, true])];
            tensor<fp16, [1, 64, 1, 1037]> var_429_cast_fp16 = slice_by_index(begin = var_429_begin_0, end = var_429_end_0, end_mask = var_429_end_mask_0, x = q_3_cast_fp16)[name = tensor<string, []>("op_429_cast_fp16")];
            tensor<int32, [4]> var_433_begin_0 = const()[name = tensor<string, []>("op_433_begin_0"), val = tensor<int32, [4]>([0, 320, 0, 0])];
            tensor<int32, [4]> var_433_end_0 = const()[name = tensor<string, []>("op_433_end_0"), val = tensor<int32, [4]>([1, 384, 1, 1037])];
            tensor<bool, [4]> var_433_end_mask_0 = const()[name = tensor<string, []>("op_433_end_mask_0"), val = tensor<bool, [4]>([true, false, true, true])];
            tensor<fp16, [1, 64, 1, 1037]> var_433_cast_fp16 = slice_by_index(begin = var_433_begin_0, end = var_433_end_0, end_mask = var_433_end_mask_0, x = q_3_cast_fp16)[name = tensor<string, []>("op_433_cast_fp16")];
            tensor<int32, [4]> k_7_perm_0 = const()[name = tensor<string, []>("k_7_perm_0"), val = tensor<int32, [4]>([0, 3, 2, 1])];
            tensor<int32, [4]> var_440_begin_0 = const()[name = tensor<string, []>("op_440_begin_0"), val = tensor<int32, [4]>([0, 0, 0, 0])];
            tensor<int32, [4]> var_440_end_0 = const()[name = tensor<string, []>("op_440_end_0"), val = tensor<int32, [4]>([1, 1037, 1, 64])];
            tensor<bool, [4]> var_440_end_mask_0 = const()[name = tensor<string, []>("op_440_end_mask_0"), val = tensor<bool, [4]>([true, true, true, false])];
            tensor<fp16, [1, 1037, 1, 384]> transpose_18 = transpose(perm = k_7_perm_0, x = k_5_cast_fp16)[name = tensor<string, []>("transpose_18")];
            tensor<fp16, [1, 1037, 1, 64]> var_440_cast_fp16 = slice_by_index(begin = var_440_begin_0, end = var_440_end_0, end_mask = var_440_end_mask_0, x = transpose_18)[name = tensor<string, []>("op_440_cast_fp16")];
            tensor<int32, [4]> var_444_begin_0 = const()[name = tensor<string, []>("op_444_begin_0"), val = tensor<int32, [4]>([0, 0, 0, 64])];
            tensor<int32, [4]> var_444_end_0 = const()[name = tensor<string, []>("op_444_end_0"), val = tensor<int32, [4]>([1, 1037, 1, 128])];
            tensor<bool, [4]> var_444_end_mask_0 = const()[name = tensor<string, []>("op_444_end_mask_0"), val = tensor<bool, [4]>([true, true, true, false])];
            tensor<fp16, [1, 1037, 1, 64]> var_444_cast_fp16 = slice_by_index(begin = var_444_begin_0, end = var_444_end_0, end_mask = var_444_end_mask_0, x = transpose_18)[name = tensor<string, []>("op_444_cast_fp16")];
            tensor<int32, [4]> var_448_begin_0 = const()[name = tensor<string, []>("op_448_begin_0"), val = tensor<int32, [4]>([0, 0, 0, 128])];
            tensor<int32, [4]> var_448_end_0 = const()[name = tensor<string, []>("op_448_end_0"), val = tensor<int32, [4]>([1, 1037, 1, 192])];
            tensor<bool, [4]> var_448_end_mask_0 = const()[name = tensor<string, []>("op_448_end_mask_0"), val = tensor<bool, [4]>([true, true, true, false])];
            tensor<fp16, [1, 1037, 1, 64]> var_448_cast_fp16 = slice_by_index(begin = var_448_begin_0, end = var_448_end_0, end_mask = var_448_end_mask_0, x = transpose_18)[name = tensor<string, []>("op_448_cast_fp16")];
            tensor<int32, [4]> var_452_begin_0 = const()[name = tensor<string, []>("op_452_begin_0"), val = tensor<int32, [4]>([0, 0, 0, 192])];
            tensor<int32, [4]> var_452_end_0 = const()[name = tensor<string, []>("op_452_end_0"), val = tensor<int32, [4]>([1, 1037, 1, 256])];
            tensor<bool, [4]> var_452_end_mask_0 = const()[name = tensor<string, []>("op_452_end_mask_0"), val = tensor<bool, [4]>([true, true, true, false])];
            tensor<fp16, [1, 1037, 1, 64]> var_452_cast_fp16 = slice_by_index(begin = var_452_begin_0, end = var_452_end_0, end_mask = var_452_end_mask_0, x = transpose_18)[name = tensor<string, []>("op_452_cast_fp16")];
            tensor<int32, [4]> var_456_begin_0 = const()[name = tensor<string, []>("op_456_begin_0"), val = tensor<int32, [4]>([0, 0, 0, 256])];
            tensor<int32, [4]> var_456_end_0 = const()[name = tensor<string, []>("op_456_end_0"), val = tensor<int32, [4]>([1, 1037, 1, 320])];
            tensor<bool, [4]> var_456_end_mask_0 = const()[name = tensor<string, []>("op_456_end_mask_0"), val = tensor<bool, [4]>([true, true, true, false])];
            tensor<fp16, [1, 1037, 1, 64]> var_456_cast_fp16 = slice_by_index(begin = var_456_begin_0, end = var_456_end_0, end_mask = var_456_end_mask_0, x = transpose_18)[name = tensor<string, []>("op_456_cast_fp16")];
            tensor<int32, [4]> var_460_begin_0 = const()[name = tensor<string, []>("op_460_begin_0"), val = tensor<int32, [4]>([0, 0, 0, 320])];
            tensor<int32, [4]> var_460_end_0 = const()[name = tensor<string, []>("op_460_end_0"), val = tensor<int32, [4]>([1, 1037, 1, 384])];
            tensor<bool, [4]> var_460_end_mask_0 = const()[name = tensor<string, []>("op_460_end_mask_0"), val = tensor<bool, [4]>([true, true, true, false])];
            tensor<fp16, [1, 1037, 1, 64]> var_460_cast_fp16 = slice_by_index(begin = var_460_begin_0, end = var_460_end_0, end_mask = var_460_end_mask_0, x = transpose_18)[name = tensor<string, []>("op_460_cast_fp16")];
            tensor<int32, [4]> var_462_begin_0 = const()[name = tensor<string, []>("op_462_begin_0"), val = tensor<int32, [4]>([0, 0, 0, 0])];
            tensor<int32, [4]> var_462_end_0 = const()[name = tensor<string, []>("op_462_end_0"), val = tensor<int32, [4]>([1, 64, 1, 1037])];
            tensor<bool, [4]> var_462_end_mask_0 = const()[name = tensor<string, []>("op_462_end_mask_0"), val = tensor<bool, [4]>([true, false, true, true])];
            tensor<fp16, [1, 64, 1, 1037]> var_462_cast_fp16 = slice_by_index(begin = var_462_begin_0, end = var_462_end_0, end_mask = var_462_end_mask_0, x = v_3_cast_fp16)[name = tensor<string, []>("op_462_cast_fp16")];
            tensor<int32, [4]> var_466_begin_0 = const()[name = tensor<string, []>("op_466_begin_0"), val = tensor<int32, [4]>([0, 64, 0, 0])];
            tensor<int32, [4]> var_466_end_0 = const()[name = tensor<string, []>("op_466_end_0"), val = tensor<int32, [4]>([1, 128, 1, 1037])];
            tensor<bool, [4]> var_466_end_mask_0 = const()[name = tensor<string, []>("op_466_end_mask_0"), val = tensor<bool, [4]>([true, false, true, true])];
            tensor<fp16, [1, 64, 1, 1037]> var_466_cast_fp16 = slice_by_index(begin = var_466_begin_0, end = var_466_end_0, end_mask = var_466_end_mask_0, x = v_3_cast_fp16)[name = tensor<string, []>("op_466_cast_fp16")];
            tensor<int32, [4]> var_470_begin_0 = const()[name = tensor<string, []>("op_470_begin_0"), val = tensor<int32, [4]>([0, 128, 0, 0])];
            tensor<int32, [4]> var_470_end_0 = const()[name = tensor<string, []>("op_470_end_0"), val = tensor<int32, [4]>([1, 192, 1, 1037])];
            tensor<bool, [4]> var_470_end_mask_0 = const()[name = tensor<string, []>("op_470_end_mask_0"), val = tensor<bool, [4]>([true, false, true, true])];
            tensor<fp16, [1, 64, 1, 1037]> var_470_cast_fp16 = slice_by_index(begin = var_470_begin_0, end = var_470_end_0, end_mask = var_470_end_mask_0, x = v_3_cast_fp16)[name = tensor<string, []>("op_470_cast_fp16")];
            tensor<int32, [4]> var_474_begin_0 = const()[name = tensor<string, []>("op_474_begin_0"), val = tensor<int32, [4]>([0, 192, 0, 0])];
            tensor<int32, [4]> var_474_end_0 = const()[name = tensor<string, []>("op_474_end_0"), val = tensor<int32, [4]>([1, 256, 1, 1037])];
            tensor<bool, [4]> var_474_end_mask_0 = const()[name = tensor<string, []>("op_474_end_mask_0"), val = tensor<bool, [4]>([true, false, true, true])];
            tensor<fp16, [1, 64, 1, 1037]> var_474_cast_fp16 = slice_by_index(begin = var_474_begin_0, end = var_474_end_0, end_mask = var_474_end_mask_0, x = v_3_cast_fp16)[name = tensor<string, []>("op_474_cast_fp16")];
            tensor<int32, [4]> var_478_begin_0 = const()[name = tensor<string, []>("op_478_begin_0"), val = tensor<int32, [4]>([0, 256, 0, 0])];
            tensor<int32, [4]> var_478_end_0 = const()[name = tensor<string, []>("op_478_end_0"), val = tensor<int32, [4]>([1, 320, 1, 1037])];
            tensor<bool, [4]> var_478_end_mask_0 = const()[name = tensor<string, []>("op_478_end_mask_0"), val = tensor<bool, [4]>([true, false, true, true])];
            tensor<fp16, [1, 64, 1, 1037]> var_478_cast_fp16 = slice_by_index(begin = var_478_begin_0, end = var_478_end_0, end_mask = var_478_end_mask_0, x = v_3_cast_fp16)[name = tensor<string, []>("op_478_cast_fp16")];
            tensor<int32, [4]> var_482_begin_0 = const()[name = tensor<string, []>("op_482_begin_0"), val = tensor<int32, [4]>([0, 320, 0, 0])];
            tensor<int32, [4]> var_482_end_0 = const()[name = tensor<string, []>("op_482_end_0"), val = tensor<int32, [4]>([1, 384, 1, 1037])];
            tensor<bool, [4]> var_482_end_mask_0 = const()[name = tensor<string, []>("op_482_end_mask_0"), val = tensor<bool, [4]>([true, false, true, true])];
            tensor<fp16, [1, 64, 1, 1037]> var_482_cast_fp16 = slice_by_index(begin = var_482_begin_0, end = var_482_end_0, end_mask = var_482_end_mask_0, x = v_3_cast_fp16)[name = tensor<string, []>("op_482_cast_fp16")];
            tensor<string, []> var_486_equation_0 = const()[name = tensor<string, []>("op_486_equation_0"), val = tensor<string, []>("bkhc,bchq->bkhq")];
            tensor<fp16, [1, 1037, 1, 1037]> var_486_cast_fp16 = einsum(equation = var_486_equation_0, values = (var_440_cast_fp16, var_413_cast_fp16))[name = tensor<string, []>("op_486_cast_fp16")];
            tensor<fp16, []> var_487_to_fp16 = const()[name = tensor<string, []>("op_487_to_fp16"), val = tensor<fp16, []>(0x1p-3)];
            tensor<fp16, [1, 1037, 1, 1037]> aw_13_cast_fp16 = mul(x = var_486_cast_fp16, y = var_487_to_fp16)[name = tensor<string, []>("aw_13_cast_fp16")];
            tensor<string, []> var_490_equation_0 = const()[name = tensor<string, []>("op_490_equation_0"), val = tensor<string, []>("bkhc,bchq->bkhq")];
            tensor<fp16, [1, 1037, 1, 1037]> var_490_cast_fp16 = einsum(equation = var_490_equation_0, values = (var_444_cast_fp16, var_417_cast_fp16))[name = tensor<string, []>("op_490_cast_fp16")];
            tensor<fp16, []> var_491_to_fp16 = const()[name = tensor<string, []>("op_491_to_fp16"), val = tensor<fp16, []>(0x1p-3)];
            tensor<fp16, [1, 1037, 1, 1037]> aw_15_cast_fp16 = mul(x = var_490_cast_fp16, y = var_491_to_fp16)[name = tensor<string, []>("aw_15_cast_fp16")];
            tensor<string, []> var_494_equation_0 = const()[name = tensor<string, []>("op_494_equation_0"), val = tensor<string, []>("bkhc,bchq->bkhq")];
            tensor<fp16, [1, 1037, 1, 1037]> var_494_cast_fp16 = einsum(equation = var_494_equation_0, values = (var_448_cast_fp16, var_421_cast_fp16))[name = tensor<string, []>("op_494_cast_fp16")];
            tensor<fp16, []> var_495_to_fp16 = const()[name = tensor<string, []>("op_495_to_fp16"), val = tensor<fp16, []>(0x1p-3)];
            tensor<fp16, [1, 1037, 1, 1037]> aw_17_cast_fp16 = mul(x = var_494_cast_fp16, y = var_495_to_fp16)[name = tensor<string, []>("aw_17_cast_fp16")];
            tensor<string, []> var_498_equation_0 = const()[name = tensor<string, []>("op_498_equation_0"), val = tensor<string, []>("bkhc,bchq->bkhq")];
            tensor<fp16, [1, 1037, 1, 1037]> var_498_cast_fp16 = einsum(equation = var_498_equation_0, values = (var_452_cast_fp16, var_425_cast_fp16))[name = tensor<string, []>("op_498_cast_fp16")];
            tensor<fp16, []> var_499_to_fp16 = const()[name = tensor<string, []>("op_499_to_fp16"), val = tensor<fp16, []>(0x1p-3)];
            tensor<fp16, [1, 1037, 1, 1037]> aw_19_cast_fp16 = mul(x = var_498_cast_fp16, y = var_499_to_fp16)[name = tensor<string, []>("aw_19_cast_fp16")];
            tensor<string, []> var_502_equation_0 = const()[name = tensor<string, []>("op_502_equation_0"), val = tensor<string, []>("bkhc,bchq->bkhq")];
            tensor<fp16, [1, 1037, 1, 1037]> var_502_cast_fp16 = einsum(equation = var_502_equation_0, values = (var_456_cast_fp16, var_429_cast_fp16))[name = tensor<string, []>("op_502_cast_fp16")];
            tensor<fp16, []> var_503_to_fp16 = const()[name = tensor<string, []>("op_503_to_fp16"), val = tensor<fp16, []>(0x1p-3)];
            tensor<fp16, [1, 1037, 1, 1037]> aw_21_cast_fp16 = mul(x = var_502_cast_fp16, y = var_503_to_fp16)[name = tensor<string, []>("aw_21_cast_fp16")];
            tensor<string, []> var_506_equation_0 = const()[name = tensor<string, []>("op_506_equation_0"), val = tensor<string, []>("bkhc,bchq->bkhq")];
            tensor<fp16, [1, 1037, 1, 1037]> var_506_cast_fp16 = einsum(equation = var_506_equation_0, values = (var_460_cast_fp16, var_433_cast_fp16))[name = tensor<string, []>("op_506_cast_fp16")];
            tensor<fp16, []> var_507_to_fp16 = const()[name = tensor<string, []>("op_507_to_fp16"), val = tensor<fp16, []>(0x1p-3)];
            tensor<fp16, [1, 1037, 1, 1037]> aw_23_cast_fp16 = mul(x = var_506_cast_fp16, y = var_507_to_fp16)[name = tensor<string, []>("aw_23_cast_fp16")];
            tensor<fp16, [1, 1037, 1, 1037]> var_509_cast_fp16 = softmax(axis = var_44, x = aw_13_cast_fp16)[name = tensor<string, []>("op_509_cast_fp16")];
            tensor<fp16, [1, 1037, 1, 1037]> var_510_cast_fp16 = softmax(axis = var_44, x = aw_15_cast_fp16)[name = tensor<string, []>("op_510_cast_fp16")];
            tensor<fp16, [1, 1037, 1, 1037]> var_511_cast_fp16 = softmax(axis = var_44, x = aw_17_cast_fp16)[name = tensor<string, []>("op_511_cast_fp16")];
            tensor<fp16, [1, 1037, 1, 1037]> var_512_cast_fp16 = softmax(axis = var_44, x = aw_19_cast_fp16)[name = tensor<string, []>("op_512_cast_fp16")];
            tensor<fp16, [1, 1037, 1, 1037]> var_513_cast_fp16 = softmax(axis = var_44, x = aw_21_cast_fp16)[name = tensor<string, []>("op_513_cast_fp16")];
            tensor<fp16, [1, 1037, 1, 1037]> var_514_cast_fp16 = softmax(axis = var_44, x = aw_23_cast_fp16)[name = tensor<string, []>("op_514_cast_fp16")];
            tensor<string, []> var_516_equation_0 = const()[name = tensor<string, []>("op_516_equation_0"), val = tensor<string, []>("bchk,bkhq->bchq")];
            tensor<fp16, [1, 64, 1, 1037]> var_516_cast_fp16 = einsum(equation = var_516_equation_0, values = (var_462_cast_fp16, var_509_cast_fp16))[name = tensor<string, []>("op_516_cast_fp16")];
            tensor<string, []> var_518_equation_0 = const()[name = tensor<string, []>("op_518_equation_0"), val = tensor<string, []>("bchk,bkhq->bchq")];
            tensor<fp16, [1, 64, 1, 1037]> var_518_cast_fp16 = einsum(equation = var_518_equation_0, values = (var_466_cast_fp16, var_510_cast_fp16))[name = tensor<string, []>("op_518_cast_fp16")];
            tensor<string, []> var_520_equation_0 = const()[name = tensor<string, []>("op_520_equation_0"), val = tensor<string, []>("bchk,bkhq->bchq")];
            tensor<fp16, [1, 64, 1, 1037]> var_520_cast_fp16 = einsum(equation = var_520_equation_0, values = (var_470_cast_fp16, var_511_cast_fp16))[name = tensor<string, []>("op_520_cast_fp16")];
            tensor<string, []> var_522_equation_0 = const()[name = tensor<string, []>("op_522_equation_0"), val = tensor<string, []>("bchk,bkhq->bchq")];
            tensor<fp16, [1, 64, 1, 1037]> var_522_cast_fp16 = einsum(equation = var_522_equation_0, values = (var_474_cast_fp16, var_512_cast_fp16))[name = tensor<string, []>("op_522_cast_fp16")];
            tensor<string, []> var_524_equation_0 = const()[name = tensor<string, []>("op_524_equation_0"), val = tensor<string, []>("bchk,bkhq->bchq")];
            tensor<fp16, [1, 64, 1, 1037]> var_524_cast_fp16 = einsum(equation = var_524_equation_0, values = (var_478_cast_fp16, var_513_cast_fp16))[name = tensor<string, []>("op_524_cast_fp16")];
            tensor<string, []> var_526_equation_0 = const()[name = tensor<string, []>("op_526_equation_0"), val = tensor<string, []>("bchk,bkhq->bchq")];
            tensor<fp16, [1, 64, 1, 1037]> var_526_cast_fp16 = einsum(equation = var_526_equation_0, values = (var_482_cast_fp16, var_514_cast_fp16))[name = tensor<string, []>("op_526_cast_fp16")];
            tensor<bool, []> input_19_interleave_0 = const()[name = tensor<string, []>("input_19_interleave_0"), val = tensor<bool, []>(false)];
            tensor<fp16, [1, 384, 1, 1037]> input_19_cast_fp16 = concat(axis = var_44, interleave = input_19_interleave_0, values = (var_516_cast_fp16, var_518_cast_fp16, var_520_cast_fp16, var_522_cast_fp16, var_524_cast_fp16, var_526_cast_fp16))[name = tensor<string, []>("input_19_cast_fp16")];
            tensor<int32, [2]> var_532 = const()[name = tensor<string, []>("op_532"), val = tensor<int32, [2]>([1, 1])];
            tensor<int32, [2]> var_534 = const()[name = tensor<string, []>("op_534"), val = tensor<int32, [2]>([1, 1])];
            tensor<string, []> input_21_pad_type_0 = const()[name = tensor<string, []>("input_21_pad_type_0"), val = tensor<string, []>("custom")];
            tensor<int32, [4]> input_21_pad_0 = const()[name = tensor<string, []>("input_21_pad_0"), val = tensor<int32, [4]>([0, 0, 0, 0])];
            tensor<fp16, [384, 384, 1, 1]> attention_output_3_weight_0_to_fp16 = const()[name = tensor<string, []>("attention_output_3_weight_0_to_fp16"), val = tensor<fp16, [384, 384, 1, 1]>(BLOBFILE(path = tensor<string, []>("@model_path/weights/weight.bin"), offset = tensor<uint64, []>(5943872)))];
            tensor<fp16, [384]> attention_output_3_bias_0_to_fp16 = const()[name = tensor<string, []>("attention_output_3_bias_0_to_fp16"), val = tensor<fp16, [384]>(BLOBFILE(path = tensor<string, []>("@model_path/weights/weight.bin"), offset = tensor<uint64, []>(6238848)))];
            tensor<fp16, [1, 384, 1, 1037]> attention_output_3_cast_fp16 = conv(bias = attention_output_3_bias_0_to_fp16, dilations = var_534, groups = var_44, pad = input_21_pad_0, pad_type = input_21_pad_type_0, strides = var_532, weight = attention_output_3_weight_0_to_fp16, x = input_19_cast_fp16)[name = tensor<string, []>("attention_output_3_cast_fp16")];
            tensor<fp16, [1, 384, 1, 1037]> inputs_7_cast_fp16 = add(x = attention_output_3_cast_fp16, y = inputs_5_cast_fp16)[name = tensor<string, []>("inputs_7_cast_fp16")];
            tensor<int32, [1]> input_23_axes_0 = const()[name = tensor<string, []>("input_23_axes_0"), val = tensor<int32, [1]>([1])];
            tensor<fp16, [384]> input_23_gamma_0_to_fp16 = const()[name = tensor<string, []>("input_23_gamma_0_to_fp16"), val = tensor<fp16, [384]>(BLOBFILE(path = tensor<string, []>("@model_path/weights/weight.bin"), offset = tensor<uint64, []>(6239680)))];
            tensor<fp16, [384]> input_23_beta_0_to_fp16 = const()[name = tensor<string, []>("input_23_beta_0_to_fp16"), val = tensor<fp16, [384]>(BLOBFILE(path = tensor<string, []>("@model_path/weights/weight.bin"), offset = tensor<uint64, []>(6240512)))];
            tensor<fp16, []> var_552_to_fp16 = const()[name = tensor<string, []>("op_552_to_fp16"), val = tensor<fp16, []>(0x1.1p-20)];
            tensor<fp16, [1, 384, 1, 1037]> input_23_cast_fp16 = layer_norm(axes = input_23_axes_0, beta = input_23_beta_0_to_fp16, epsilon = var_552_to_fp16, gamma = input_23_gamma_0_to_fp16, x = inputs_7_cast_fp16)[name = tensor<string, []>("input_23_cast_fp16")];
            tensor<int32, [2]> var_566 = const()[name = tensor<string, []>("op_566"), val = tensor<int32, [2]>([1, 1])];
            tensor<int32, [2]> var_568 = const()[name = tensor<string, []>("op_568"), val = tensor<int32, [2]>([1, 1])];
            tensor<string, []> input_25_pad_type_0 = const()[name = tensor<string, []>("input_25_pad_type_0"), val = tensor<string, []>("custom")];
            tensor<int32, [4]> input_25_pad_0 = const()[name = tensor<string, []>("input_25_pad_0"), val = tensor<int32, [4]>([0, 0, 0, 0])];
            tensor<fp16, [1536, 384, 1, 1]> model_backbone_encoder_layer_1_mlp_fc1_weight_to_fp16 = const()[name = tensor<string, []>("model_backbone_encoder_layer_1_mlp_fc1_weight_to_fp16"), val = tensor<fp16, [1536, 384, 1, 1]>(BLOBFILE(path = tensor<string, []>("@model_path/weights/weight.bin"), offset = tensor<uint64, []>(6241344)))];
            tensor<fp16, [1536]> model_backbone_encoder_layer_1_mlp_fc1_bias_to_fp16 = const()[name = tensor<string, []>("model_backbone_encoder_layer_1_mlp_fc1_bias_to_fp16"), val = tensor<fp16, [1536]>(BLOBFILE(path = tensor<string, []>("@model_path/weights/weight.bin"), offset = tensor<uint64, []>(7421056)))];
            tensor<fp16, [1, 1536, 1, 1037]> input_25_cast_fp16 = conv(bias = model_backbone_encoder_layer_1_mlp_fc1_bias_to_fp16, dilations = var_568, groups = var_44, pad = input_25_pad_0, pad_type = input_25_pad_type_0, strides = var_566, weight = model_backbone_encoder_layer_1_mlp_fc1_weight_to_fp16, x = input_23_cast_fp16)[name = tensor<string, []>("input_25_cast_fp16")];
            tensor<string, []> input_27_mode_0 = const()[name = tensor<string, []>("input_27_mode_0"), val = tensor<string, []>("EXACT")];
            tensor<fp16, [1, 1536, 1, 1037]> input_27_cast_fp16 = gelu(mode = input_27_mode_0, x = input_25_cast_fp16)[name = tensor<string, []>("input_27_cast_fp16")];
            tensor<int32, [2]> var_574 = const()[name = tensor<string, []>("op_574"), val = tensor<int32, [2]>([1, 1])];
            tensor<int32, [2]> var_576 = const()[name = tensor<string, []>("op_576"), val = tensor<int32, [2]>([1, 1])];
            tensor<string, []> hidden_state_7_pad_type_0 = const()[name = tensor<string, []>("hidden_state_7_pad_type_0"), val = tensor<string, []>("custom")];
            tensor<int32, [4]> hidden_state_7_pad_0 = const()[name = tensor<string, []>("hidden_state_7_pad_0"), val = tensor<int32, [4]>([0, 0, 0, 0])];
            tensor<fp16, [384, 1536, 1, 1]> layer_output_3_weight_0_to_fp16 = const()[name = tensor<string, []>("layer_output_3_weight_0_to_fp16"), val = tensor<fp16, [384, 1536, 1, 1]>(BLOBFILE(path = tensor<string, []>("@model_path/weights/weight.bin"), offset = tensor<uint64, []>(7424192)))];
            tensor<fp16, [384]> layer_output_3_bias_0_to_fp16 = const()[name = tensor<string, []>("layer_output_3_bias_0_to_fp16"), val = tensor<fp16, [384]>(BLOBFILE(path = tensor<string, []>("@model_path/weights/weight.bin"), offset = tensor<uint64, []>(8603904)))];
            tensor<fp16, [1, 384, 1, 1037]> layer_output_3_cast_fp16 = conv(bias = layer_output_3_bias_0_to_fp16, dilations = var_576, groups = var_44, pad = hidden_state_7_pad_0, pad_type = hidden_state_7_pad_type_0, strides = var_574, weight = layer_output_3_weight_0_to_fp16, x = input_27_cast_fp16)[name = tensor<string, []>("layer_output_3_cast_fp16")];
            tensor<fp16, [1, 384, 1, 1037]> inputs_9_cast_fp16 = add(x = layer_output_3_cast_fp16, y = inputs_7_cast_fp16)[name = tensor<string, []>("inputs_9_cast_fp16")];
            tensor<int32, [1]> input_29_axes_0 = const()[name = tensor<string, []>("input_29_axes_0"), val = tensor<int32, [1]>([1])];
            tensor<fp16, [384]> input_29_gamma_0_to_fp16 = const()[name = tensor<string, []>("input_29_gamma_0_to_fp16"), val = tensor<fp16, [384]>(BLOBFILE(path = tensor<string, []>("@model_path/weights/weight.bin"), offset = tensor<uint64, []>(8604736)))];
            tensor<fp16, [384]> input_29_beta_0_to_fp16 = const()[name = tensor<string, []>("input_29_beta_0_to_fp16"), val = tensor<fp16, [384]>(BLOBFILE(path = tensor<string, []>("@model_path/weights/weight.bin"), offset = tensor<uint64, []>(8605568)))];
            tensor<fp16, []> var_599_to_fp16 = const()[name = tensor<string, []>("op_599_to_fp16"), val = tensor<fp16, []>(0x1.1p-20)];
            tensor<fp16, [1, 384, 1, 1037]> input_29_cast_fp16 = layer_norm(axes = input_29_axes_0, beta = input_29_beta_0_to_fp16, epsilon = var_599_to_fp16, gamma = input_29_gamma_0_to_fp16, x = inputs_9_cast_fp16)[name = tensor<string, []>("input_29_cast_fp16")];
            tensor<int32, [2]> var_616 = const()[name = tensor<string, []>("op_616"), val = tensor<int32, [2]>([1, 1])];
            tensor<int32, [2]> var_618 = const()[name = tensor<string, []>("op_618"), val = tensor<int32, [2]>([1, 1])];
            tensor<string, []> k_9_pad_type_0 = const()[name = tensor<string, []>("k_9_pad_type_0"), val = tensor<string, []>("custom")];
            tensor<int32, [4]> k_9_pad_0 = const()[name = tensor<string, []>("k_9_pad_0"), val = tensor<int32, [4]>([0, 0, 0, 0])];
            tensor<fp16, [384, 384, 1, 1]> model_backbone_encoder_layer_2_attention_attention_key_weight_to_fp16 = const()[name = tensor<string, []>("model_backbone_encoder_layer_2_attention_attention_key_weight_to_fp16"), val = tensor<fp16, [384, 384, 1, 1]>(BLOBFILE(path = tensor<string, []>("@model_path/weights/weight.bin"), offset = tensor<uint64, []>(8606400)))];
            tensor<fp16, [384]> model_backbone_encoder_layer_2_attention_attention_key_bias_to_fp16 = const()[name = tensor<string, []>("model_backbone_encoder_layer_2_attention_attention_key_bias_to_fp16"), val = tensor<fp16, [384]>(BLOBFILE(path = tensor<string, []>("@model_path/weights/weight.bin"), offset = tensor<uint64, []>(8901376)))];
            tensor<fp16, [1, 384, 1, 1037]> k_9_cast_fp16 = conv(bias = model_backbone_encoder_layer_2_attention_attention_key_bias_to_fp16, dilations = var_618, groups = var_44, pad = k_9_pad_0, pad_type = k_9_pad_type_0, strides = var_616, weight = model_backbone_encoder_layer_2_attention_attention_key_weight_to_fp16, x = input_29_cast_fp16)[name = tensor<string, []>("k_9_cast_fp16")];
            tensor<int32, [2]> var_623 = const()[name = tensor<string, []>("op_623"), val = tensor<int32, [2]>([1, 1])];
            tensor<int32, [2]> var_625 = const()[name = tensor<string, []>("op_625"), val = tensor<int32, [2]>([1, 1])];
            tensor<string, []> v_5_pad_type_0 = const()[name = tensor<string, []>("v_5_pad_type_0"), val = tensor<string, []>("custom")];
            tensor<int32, [4]> v_5_pad_0 = const()[name = tensor<string, []>("v_5_pad_0"), val = tensor<int32, [4]>([0, 0, 0, 0])];
            tensor<fp16, [384, 384, 1, 1]> model_backbone_encoder_layer_2_attention_attention_value_weight_to_fp16 = const()[name = tensor<string, []>("model_backbone_encoder_layer_2_attention_attention_value_weight_to_fp16"), val = tensor<fp16, [384, 384, 1, 1]>(BLOBFILE(path = tensor<string, []>("@model_path/weights/weight.bin"), offset = tensor<uint64, []>(8902208)))];
            tensor<fp16, [384]> model_backbone_encoder_layer_2_attention_attention_value_bias_to_fp16 = const()[name = tensor<string, []>("model_backbone_encoder_layer_2_attention_attention_value_bias_to_fp16"), val = tensor<fp16, [384]>(BLOBFILE(path = tensor<string, []>("@model_path/weights/weight.bin"), offset = tensor<uint64, []>(9197184)))];
            tensor<fp16, [1, 384, 1, 1037]> v_5_cast_fp16 = conv(bias = model_backbone_encoder_layer_2_attention_attention_value_bias_to_fp16, dilations = var_625, groups = var_44, pad = v_5_pad_0, pad_type = v_5_pad_type_0, strides = var_623, weight = model_backbone_encoder_layer_2_attention_attention_value_weight_to_fp16, x = input_29_cast_fp16)[name = tensor<string, []>("v_5_cast_fp16")];
            tensor<int32, [2]> var_630 = const()[name = tensor<string, []>("op_630"), val = tensor<int32, [2]>([1, 1])];
            tensor<int32, [2]> var_632 = const()[name = tensor<string, []>("op_632"), val = tensor<int32, [2]>([1, 1])];
            tensor<string, []> q_5_pad_type_0 = const()[name = tensor<string, []>("q_5_pad_type_0"), val = tensor<string, []>("custom")];
            tensor<int32, [4]> q_5_pad_0 = const()[name = tensor<string, []>("q_5_pad_0"), val = tensor<int32, [4]>([0, 0, 0, 0])];
            tensor<fp16, [384, 384, 1, 1]> model_backbone_encoder_layer_2_attention_attention_query_weight_to_fp16 = const()[name = tensor<string, []>("model_backbone_encoder_layer_2_attention_attention_query_weight_to_fp16"), val = tensor<fp16, [384, 384, 1, 1]>(BLOBFILE(path = tensor<string, []>("@model_path/weights/weight.bin"), offset = tensor<uint64, []>(9198016)))];
            tensor<fp16, [384]> model_backbone_encoder_layer_2_attention_attention_query_bias_to_fp16 = const()[name = tensor<string, []>("model_backbone_encoder_layer_2_attention_attention_query_bias_to_fp16"), val = tensor<fp16, [384]>(BLOBFILE(path = tensor<string, []>("@model_path/weights/weight.bin"), offset = tensor<uint64, []>(9492992)))];
            tensor<fp16, [1, 384, 1, 1037]> q_5_cast_fp16 = conv(bias = model_backbone_encoder_layer_2_attention_attention_query_bias_to_fp16, dilations = var_632, groups = var_44, pad = q_5_pad_0, pad_type = q_5_pad_type_0, strides = var_630, weight = model_backbone_encoder_layer_2_attention_attention_query_weight_to_fp16, x = input_29_cast_fp16)[name = tensor<string, []>("q_5_cast_fp16")];
            tensor<int32, [4]> var_636_begin_0 = const()[name = tensor<string, []>("op_636_begin_0"), val = tensor<int32, [4]>([0, 0, 0, 0])];
            tensor<int32, [4]> var_636_end_0 = const()[name = tensor<string, []>("op_636_end_0"), val = tensor<int32, [4]>([1, 64, 1, 1037])];
            tensor<bool, [4]> var_636_end_mask_0 = const()[name = tensor<string, []>("op_636_end_mask_0"), val = tensor<bool, [4]>([true, false, true, true])];
            tensor<fp16, [1, 64, 1, 1037]> var_636_cast_fp16 = slice_by_index(begin = var_636_begin_0, end = var_636_end_0, end_mask = var_636_end_mask_0, x = q_5_cast_fp16)[name = tensor<string, []>("op_636_cast_fp16")];
            tensor<int32, [4]> var_640_begin_0 = const()[name = tensor<string, []>("op_640_begin_0"), val = tensor<int32, [4]>([0, 64, 0, 0])];
            tensor<int32, [4]> var_640_end_0 = const()[name = tensor<string, []>("op_640_end_0"), val = tensor<int32, [4]>([1, 128, 1, 1037])];
            tensor<bool, [4]> var_640_end_mask_0 = const()[name = tensor<string, []>("op_640_end_mask_0"), val = tensor<bool, [4]>([true, false, true, true])];
            tensor<fp16, [1, 64, 1, 1037]> var_640_cast_fp16 = slice_by_index(begin = var_640_begin_0, end = var_640_end_0, end_mask = var_640_end_mask_0, x = q_5_cast_fp16)[name = tensor<string, []>("op_640_cast_fp16")];
            tensor<int32, [4]> var_644_begin_0 = const()[name = tensor<string, []>("op_644_begin_0"), val = tensor<int32, [4]>([0, 128, 0, 0])];
            tensor<int32, [4]> var_644_end_0 = const()[name = tensor<string, []>("op_644_end_0"), val = tensor<int32, [4]>([1, 192, 1, 1037])];
            tensor<bool, [4]> var_644_end_mask_0 = const()[name = tensor<string, []>("op_644_end_mask_0"), val = tensor<bool, [4]>([true, false, true, true])];
            tensor<fp16, [1, 64, 1, 1037]> var_644_cast_fp16 = slice_by_index(begin = var_644_begin_0, end = var_644_end_0, end_mask = var_644_end_mask_0, x = q_5_cast_fp16)[name = tensor<string, []>("op_644_cast_fp16")];
            tensor<int32, [4]> var_648_begin_0 = const()[name = tensor<string, []>("op_648_begin_0"), val = tensor<int32, [4]>([0, 192, 0, 0])];
            tensor<int32, [4]> var_648_end_0 = const()[name = tensor<string, []>("op_648_end_0"), val = tensor<int32, [4]>([1, 256, 1, 1037])];
            tensor<bool, [4]> var_648_end_mask_0 = const()[name = tensor<string, []>("op_648_end_mask_0"), val = tensor<bool, [4]>([true, false, true, true])];
            tensor<fp16, [1, 64, 1, 1037]> var_648_cast_fp16 = slice_by_index(begin = var_648_begin_0, end = var_648_end_0, end_mask = var_648_end_mask_0, x = q_5_cast_fp16)[name = tensor<string, []>("op_648_cast_fp16")];
            tensor<int32, [4]> var_652_begin_0 = const()[name = tensor<string, []>("op_652_begin_0"), val = tensor<int32, [4]>([0, 256, 0, 0])];
            tensor<int32, [4]> var_652_end_0 = const()[name = tensor<string, []>("op_652_end_0"), val = tensor<int32, [4]>([1, 320, 1, 1037])];
            tensor<bool, [4]> var_652_end_mask_0 = const()[name = tensor<string, []>("op_652_end_mask_0"), val = tensor<bool, [4]>([true, false, true, true])];
            tensor<fp16, [1, 64, 1, 1037]> var_652_cast_fp16 = slice_by_index(begin = var_652_begin_0, end = var_652_end_0, end_mask = var_652_end_mask_0, x = q_5_cast_fp16)[name = tensor<string, []>("op_652_cast_fp16")];
            tensor<int32, [4]> var_656_begin_0 = const()[name = tensor<string, []>("op_656_begin_0"), val = tensor<int32, [4]>([0, 320, 0, 0])];
            tensor<int32, [4]> var_656_end_0 = const()[name = tensor<string, []>("op_656_end_0"), val = tensor<int32, [4]>([1, 384, 1, 1037])];
            tensor<bool, [4]> var_656_end_mask_0 = const()[name = tensor<string, []>("op_656_end_mask_0"), val = tensor<bool, [4]>([true, false, true, true])];
            tensor<fp16, [1, 64, 1, 1037]> var_656_cast_fp16 = slice_by_index(begin = var_656_begin_0, end = var_656_end_0, end_mask = var_656_end_mask_0, x = q_5_cast_fp16)[name = tensor<string, []>("op_656_cast_fp16")];
            tensor<int32, [4]> k_11_perm_0 = const()[name = tensor<string, []>("k_11_perm_0"), val = tensor<int32, [4]>([0, 3, 2, 1])];
            tensor<int32, [4]> var_663_begin_0 = const()[name = tensor<string, []>("op_663_begin_0"), val = tensor<int32, [4]>([0, 0, 0, 0])];
            tensor<int32, [4]> var_663_end_0 = const()[name = tensor<string, []>("op_663_end_0"), val = tensor<int32, [4]>([1, 1037, 1, 64])];
            tensor<bool, [4]> var_663_end_mask_0 = const()[name = tensor<string, []>("op_663_end_mask_0"), val = tensor<bool, [4]>([true, true, true, false])];
            tensor<fp16, [1, 1037, 1, 384]> transpose_17 = transpose(perm = k_11_perm_0, x = k_9_cast_fp16)[name = tensor<string, []>("transpose_17")];
            tensor<fp16, [1, 1037, 1, 64]> var_663_cast_fp16 = slice_by_index(begin = var_663_begin_0, end = var_663_end_0, end_mask = var_663_end_mask_0, x = transpose_17)[name = tensor<string, []>("op_663_cast_fp16")];
            tensor<int32, [4]> var_667_begin_0 = const()[name = tensor<string, []>("op_667_begin_0"), val = tensor<int32, [4]>([0, 0, 0, 64])];
            tensor<int32, [4]> var_667_end_0 = const()[name = tensor<string, []>("op_667_end_0"), val = tensor<int32, [4]>([1, 1037, 1, 128])];
            tensor<bool, [4]> var_667_end_mask_0 = const()[name = tensor<string, []>("op_667_end_mask_0"), val = tensor<bool, [4]>([true, true, true, false])];
            tensor<fp16, [1, 1037, 1, 64]> var_667_cast_fp16 = slice_by_index(begin = var_667_begin_0, end = var_667_end_0, end_mask = var_667_end_mask_0, x = transpose_17)[name = tensor<string, []>("op_667_cast_fp16")];
            tensor<int32, [4]> var_671_begin_0 = const()[name = tensor<string, []>("op_671_begin_0"), val = tensor<int32, [4]>([0, 0, 0, 128])];
            tensor<int32, [4]> var_671_end_0 = const()[name = tensor<string, []>("op_671_end_0"), val = tensor<int32, [4]>([1, 1037, 1, 192])];
            tensor<bool, [4]> var_671_end_mask_0 = const()[name = tensor<string, []>("op_671_end_mask_0"), val = tensor<bool, [4]>([true, true, true, false])];
            tensor<fp16, [1, 1037, 1, 64]> var_671_cast_fp16 = slice_by_index(begin = var_671_begin_0, end = var_671_end_0, end_mask = var_671_end_mask_0, x = transpose_17)[name = tensor<string, []>("op_671_cast_fp16")];
            tensor<int32, [4]> var_675_begin_0 = const()[name = tensor<string, []>("op_675_begin_0"), val = tensor<int32, [4]>([0, 0, 0, 192])];
            tensor<int32, [4]> var_675_end_0 = const()[name = tensor<string, []>("op_675_end_0"), val = tensor<int32, [4]>([1, 1037, 1, 256])];
            tensor<bool, [4]> var_675_end_mask_0 = const()[name = tensor<string, []>("op_675_end_mask_0"), val = tensor<bool, [4]>([true, true, true, false])];
            tensor<fp16, [1, 1037, 1, 64]> var_675_cast_fp16 = slice_by_index(begin = var_675_begin_0, end = var_675_end_0, end_mask = var_675_end_mask_0, x = transpose_17)[name = tensor<string, []>("op_675_cast_fp16")];
            tensor<int32, [4]> var_679_begin_0 = const()[name = tensor<string, []>("op_679_begin_0"), val = tensor<int32, [4]>([0, 0, 0, 256])];
            tensor<int32, [4]> var_679_end_0 = const()[name = tensor<string, []>("op_679_end_0"), val = tensor<int32, [4]>([1, 1037, 1, 320])];
            tensor<bool, [4]> var_679_end_mask_0 = const()[name = tensor<string, []>("op_679_end_mask_0"), val = tensor<bool, [4]>([true, true, true, false])];
            tensor<fp16, [1, 1037, 1, 64]> var_679_cast_fp16 = slice_by_index(begin = var_679_begin_0, end = var_679_end_0, end_mask = var_679_end_mask_0, x = transpose_17)[name = tensor<string, []>("op_679_cast_fp16")];
            tensor<int32, [4]> var_683_begin_0 = const()[name = tensor<string, []>("op_683_begin_0"), val = tensor<int32, [4]>([0, 0, 0, 320])];
            tensor<int32, [4]> var_683_end_0 = const()[name = tensor<string, []>("op_683_end_0"), val = tensor<int32, [4]>([1, 1037, 1, 384])];
            tensor<bool, [4]> var_683_end_mask_0 = const()[name = tensor<string, []>("op_683_end_mask_0"), val = tensor<bool, [4]>([true, true, true, false])];
            tensor<fp16, [1, 1037, 1, 64]> var_683_cast_fp16 = slice_by_index(begin = var_683_begin_0, end = var_683_end_0, end_mask = var_683_end_mask_0, x = transpose_17)[name = tensor<string, []>("op_683_cast_fp16")];
            tensor<int32, [4]> var_685_begin_0 = const()[name = tensor<string, []>("op_685_begin_0"), val = tensor<int32, [4]>([0, 0, 0, 0])];
            tensor<int32, [4]> var_685_end_0 = const()[name = tensor<string, []>("op_685_end_0"), val = tensor<int32, [4]>([1, 64, 1, 1037])];
            tensor<bool, [4]> var_685_end_mask_0 = const()[name = tensor<string, []>("op_685_end_mask_0"), val = tensor<bool, [4]>([true, false, true, true])];
            tensor<fp16, [1, 64, 1, 1037]> var_685_cast_fp16 = slice_by_index(begin = var_685_begin_0, end = var_685_end_0, end_mask = var_685_end_mask_0, x = v_5_cast_fp16)[name = tensor<string, []>("op_685_cast_fp16")];
            tensor<int32, [4]> var_689_begin_0 = const()[name = tensor<string, []>("op_689_begin_0"), val = tensor<int32, [4]>([0, 64, 0, 0])];
            tensor<int32, [4]> var_689_end_0 = const()[name = tensor<string, []>("op_689_end_0"), val = tensor<int32, [4]>([1, 128, 1, 1037])];
            tensor<bool, [4]> var_689_end_mask_0 = const()[name = tensor<string, []>("op_689_end_mask_0"), val = tensor<bool, [4]>([true, false, true, true])];
            tensor<fp16, [1, 64, 1, 1037]> var_689_cast_fp16 = slice_by_index(begin = var_689_begin_0, end = var_689_end_0, end_mask = var_689_end_mask_0, x = v_5_cast_fp16)[name = tensor<string, []>("op_689_cast_fp16")];
            tensor<int32, [4]> var_693_begin_0 = const()[name = tensor<string, []>("op_693_begin_0"), val = tensor<int32, [4]>([0, 128, 0, 0])];
            tensor<int32, [4]> var_693_end_0 = const()[name = tensor<string, []>("op_693_end_0"), val = tensor<int32, [4]>([1, 192, 1, 1037])];
            tensor<bool, [4]> var_693_end_mask_0 = const()[name = tensor<string, []>("op_693_end_mask_0"), val = tensor<bool, [4]>([true, false, true, true])];
            tensor<fp16, [1, 64, 1, 1037]> var_693_cast_fp16 = slice_by_index(begin = var_693_begin_0, end = var_693_end_0, end_mask = var_693_end_mask_0, x = v_5_cast_fp16)[name = tensor<string, []>("op_693_cast_fp16")];
            tensor<int32, [4]> var_697_begin_0 = const()[name = tensor<string, []>("op_697_begin_0"), val = tensor<int32, [4]>([0, 192, 0, 0])];
            tensor<int32, [4]> var_697_end_0 = const()[name = tensor<string, []>("op_697_end_0"), val = tensor<int32, [4]>([1, 256, 1, 1037])];
            tensor<bool, [4]> var_697_end_mask_0 = const()[name = tensor<string, []>("op_697_end_mask_0"), val = tensor<bool, [4]>([true, false, true, true])];
            tensor<fp16, [1, 64, 1, 1037]> var_697_cast_fp16 = slice_by_index(begin = var_697_begin_0, end = var_697_end_0, end_mask = var_697_end_mask_0, x = v_5_cast_fp16)[name = tensor<string, []>("op_697_cast_fp16")];
            tensor<int32, [4]> var_701_begin_0 = const()[name = tensor<string, []>("op_701_begin_0"), val = tensor<int32, [4]>([0, 256, 0, 0])];
            tensor<int32, [4]> var_701_end_0 = const()[name = tensor<string, []>("op_701_end_0"), val = tensor<int32, [4]>([1, 320, 1, 1037])];
            tensor<bool, [4]> var_701_end_mask_0 = const()[name = tensor<string, []>("op_701_end_mask_0"), val = tensor<bool, [4]>([true, false, true, true])];
            tensor<fp16, [1, 64, 1, 1037]> var_701_cast_fp16 = slice_by_index(begin = var_701_begin_0, end = var_701_end_0, end_mask = var_701_end_mask_0, x = v_5_cast_fp16)[name = tensor<string, []>("op_701_cast_fp16")];
            tensor<int32, [4]> var_705_begin_0 = const()[name = tensor<string, []>("op_705_begin_0"), val = tensor<int32, [4]>([0, 320, 0, 0])];
            tensor<int32, [4]> var_705_end_0 = const()[name = tensor<string, []>("op_705_end_0"), val = tensor<int32, [4]>([1, 384, 1, 1037])];
            tensor<bool, [4]> var_705_end_mask_0 = const()[name = tensor<string, []>("op_705_end_mask_0"), val = tensor<bool, [4]>([true, false, true, true])];
            tensor<fp16, [1, 64, 1, 1037]> var_705_cast_fp16 = slice_by_index(begin = var_705_begin_0, end = var_705_end_0, end_mask = var_705_end_mask_0, x = v_5_cast_fp16)[name = tensor<string, []>("op_705_cast_fp16")];
            tensor<string, []> var_709_equation_0 = const()[name = tensor<string, []>("op_709_equation_0"), val = tensor<string, []>("bkhc,bchq->bkhq")];
            tensor<fp16, [1, 1037, 1, 1037]> var_709_cast_fp16 = einsum(equation = var_709_equation_0, values = (var_663_cast_fp16, var_636_cast_fp16))[name = tensor<string, []>("op_709_cast_fp16")];
            tensor<fp16, []> var_710_to_fp16 = const()[name = tensor<string, []>("op_710_to_fp16"), val = tensor<fp16, []>(0x1p-3)];
            tensor<fp16, [1, 1037, 1, 1037]> aw_25_cast_fp16 = mul(x = var_709_cast_fp16, y = var_710_to_fp16)[name = tensor<string, []>("aw_25_cast_fp16")];
            tensor<string, []> var_713_equation_0 = const()[name = tensor<string, []>("op_713_equation_0"), val = tensor<string, []>("bkhc,bchq->bkhq")];
            tensor<fp16, [1, 1037, 1, 1037]> var_713_cast_fp16 = einsum(equation = var_713_equation_0, values = (var_667_cast_fp16, var_640_cast_fp16))[name = tensor<string, []>("op_713_cast_fp16")];
            tensor<fp16, []> var_714_to_fp16 = const()[name = tensor<string, []>("op_714_to_fp16"), val = tensor<fp16, []>(0x1p-3)];
            tensor<fp16, [1, 1037, 1, 1037]> aw_27_cast_fp16 = mul(x = var_713_cast_fp16, y = var_714_to_fp16)[name = tensor<string, []>("aw_27_cast_fp16")];
            tensor<string, []> var_717_equation_0 = const()[name = tensor<string, []>("op_717_equation_0"), val = tensor<string, []>("bkhc,bchq->bkhq")];
            tensor<fp16, [1, 1037, 1, 1037]> var_717_cast_fp16 = einsum(equation = var_717_equation_0, values = (var_671_cast_fp16, var_644_cast_fp16))[name = tensor<string, []>("op_717_cast_fp16")];
            tensor<fp16, []> var_718_to_fp16 = const()[name = tensor<string, []>("op_718_to_fp16"), val = tensor<fp16, []>(0x1p-3)];
            tensor<fp16, [1, 1037, 1, 1037]> aw_29_cast_fp16 = mul(x = var_717_cast_fp16, y = var_718_to_fp16)[name = tensor<string, []>("aw_29_cast_fp16")];
            tensor<string, []> var_721_equation_0 = const()[name = tensor<string, []>("op_721_equation_0"), val = tensor<string, []>("bkhc,bchq->bkhq")];
            tensor<fp16, [1, 1037, 1, 1037]> var_721_cast_fp16 = einsum(equation = var_721_equation_0, values = (var_675_cast_fp16, var_648_cast_fp16))[name = tensor<string, []>("op_721_cast_fp16")];
            tensor<fp16, []> var_722_to_fp16 = const()[name = tensor<string, []>("op_722_to_fp16"), val = tensor<fp16, []>(0x1p-3)];
            tensor<fp16, [1, 1037, 1, 1037]> aw_31_cast_fp16 = mul(x = var_721_cast_fp16, y = var_722_to_fp16)[name = tensor<string, []>("aw_31_cast_fp16")];
            tensor<string, []> var_725_equation_0 = const()[name = tensor<string, []>("op_725_equation_0"), val = tensor<string, []>("bkhc,bchq->bkhq")];
            tensor<fp16, [1, 1037, 1, 1037]> var_725_cast_fp16 = einsum(equation = var_725_equation_0, values = (var_679_cast_fp16, var_652_cast_fp16))[name = tensor<string, []>("op_725_cast_fp16")];
            tensor<fp16, []> var_726_to_fp16 = const()[name = tensor<string, []>("op_726_to_fp16"), val = tensor<fp16, []>(0x1p-3)];
            tensor<fp16, [1, 1037, 1, 1037]> aw_33_cast_fp16 = mul(x = var_725_cast_fp16, y = var_726_to_fp16)[name = tensor<string, []>("aw_33_cast_fp16")];
            tensor<string, []> var_729_equation_0 = const()[name = tensor<string, []>("op_729_equation_0"), val = tensor<string, []>("bkhc,bchq->bkhq")];
            tensor<fp16, [1, 1037, 1, 1037]> var_729_cast_fp16 = einsum(equation = var_729_equation_0, values = (var_683_cast_fp16, var_656_cast_fp16))[name = tensor<string, []>("op_729_cast_fp16")];
            tensor<fp16, []> var_730_to_fp16 = const()[name = tensor<string, []>("op_730_to_fp16"), val = tensor<fp16, []>(0x1p-3)];
            tensor<fp16, [1, 1037, 1, 1037]> aw_35_cast_fp16 = mul(x = var_729_cast_fp16, y = var_730_to_fp16)[name = tensor<string, []>("aw_35_cast_fp16")];
            tensor<fp16, [1, 1037, 1, 1037]> var_732_cast_fp16 = softmax(axis = var_44, x = aw_25_cast_fp16)[name = tensor<string, []>("op_732_cast_fp16")];
            tensor<fp16, [1, 1037, 1, 1037]> var_733_cast_fp16 = softmax(axis = var_44, x = aw_27_cast_fp16)[name = tensor<string, []>("op_733_cast_fp16")];
            tensor<fp16, [1, 1037, 1, 1037]> var_734_cast_fp16 = softmax(axis = var_44, x = aw_29_cast_fp16)[name = tensor<string, []>("op_734_cast_fp16")];
            tensor<fp16, [1, 1037, 1, 1037]> var_735_cast_fp16 = softmax(axis = var_44, x = aw_31_cast_fp16)[name = tensor<string, []>("op_735_cast_fp16")];
            tensor<fp16, [1, 1037, 1, 1037]> var_736_cast_fp16 = softmax(axis = var_44, x = aw_33_cast_fp16)[name = tensor<string, []>("op_736_cast_fp16")];
            tensor<fp16, [1, 1037, 1, 1037]> var_737_cast_fp16 = softmax(axis = var_44, x = aw_35_cast_fp16)[name = tensor<string, []>("op_737_cast_fp16")];
            tensor<string, []> var_739_equation_0 = const()[name = tensor<string, []>("op_739_equation_0"), val = tensor<string, []>("bchk,bkhq->bchq")];
            tensor<fp16, [1, 64, 1, 1037]> var_739_cast_fp16 = einsum(equation = var_739_equation_0, values = (var_685_cast_fp16, var_732_cast_fp16))[name = tensor<string, []>("op_739_cast_fp16")];
            tensor<string, []> var_741_equation_0 = const()[name = tensor<string, []>("op_741_equation_0"), val = tensor<string, []>("bchk,bkhq->bchq")];
            tensor<fp16, [1, 64, 1, 1037]> var_741_cast_fp16 = einsum(equation = var_741_equation_0, values = (var_689_cast_fp16, var_733_cast_fp16))[name = tensor<string, []>("op_741_cast_fp16")];
            tensor<string, []> var_743_equation_0 = const()[name = tensor<string, []>("op_743_equation_0"), val = tensor<string, []>("bchk,bkhq->bchq")];
            tensor<fp16, [1, 64, 1, 1037]> var_743_cast_fp16 = einsum(equation = var_743_equation_0, values = (var_693_cast_fp16, var_734_cast_fp16))[name = tensor<string, []>("op_743_cast_fp16")];
            tensor<string, []> var_745_equation_0 = const()[name = tensor<string, []>("op_745_equation_0"), val = tensor<string, []>("bchk,bkhq->bchq")];
            tensor<fp16, [1, 64, 1, 1037]> var_745_cast_fp16 = einsum(equation = var_745_equation_0, values = (var_697_cast_fp16, var_735_cast_fp16))[name = tensor<string, []>("op_745_cast_fp16")];
            tensor<string, []> var_747_equation_0 = const()[name = tensor<string, []>("op_747_equation_0"), val = tensor<string, []>("bchk,bkhq->bchq")];
            tensor<fp16, [1, 64, 1, 1037]> var_747_cast_fp16 = einsum(equation = var_747_equation_0, values = (var_701_cast_fp16, var_736_cast_fp16))[name = tensor<string, []>("op_747_cast_fp16")];
            tensor<string, []> var_749_equation_0 = const()[name = tensor<string, []>("op_749_equation_0"), val = tensor<string, []>("bchk,bkhq->bchq")];
            tensor<fp16, [1, 64, 1, 1037]> var_749_cast_fp16 = einsum(equation = var_749_equation_0, values = (var_705_cast_fp16, var_737_cast_fp16))[name = tensor<string, []>("op_749_cast_fp16")];
            tensor<bool, []> input_31_interleave_0 = const()[name = tensor<string, []>("input_31_interleave_0"), val = tensor<bool, []>(false)];
            tensor<fp16, [1, 384, 1, 1037]> input_31_cast_fp16 = concat(axis = var_44, interleave = input_31_interleave_0, values = (var_739_cast_fp16, var_741_cast_fp16, var_743_cast_fp16, var_745_cast_fp16, var_747_cast_fp16, var_749_cast_fp16))[name = tensor<string, []>("input_31_cast_fp16")];
            tensor<int32, [2]> var_755 = const()[name = tensor<string, []>("op_755"), val = tensor<int32, [2]>([1, 1])];
            tensor<int32, [2]> var_757 = const()[name = tensor<string, []>("op_757"), val = tensor<int32, [2]>([1, 1])];
            tensor<string, []> input_33_pad_type_0 = const()[name = tensor<string, []>("input_33_pad_type_0"), val = tensor<string, []>("custom")];
            tensor<int32, [4]> input_33_pad_0 = const()[name = tensor<string, []>("input_33_pad_0"), val = tensor<int32, [4]>([0, 0, 0, 0])];
            tensor<fp16, [384, 384, 1, 1]> attention_output_5_weight_0_to_fp16 = const()[name = tensor<string, []>("attention_output_5_weight_0_to_fp16"), val = tensor<fp16, [384, 384, 1, 1]>(BLOBFILE(path = tensor<string, []>("@model_path/weights/weight.bin"), offset = tensor<uint64, []>(9493824)))];
            tensor<fp16, [384]> attention_output_5_bias_0_to_fp16 = const()[name = tensor<string, []>("attention_output_5_bias_0_to_fp16"), val = tensor<fp16, [384]>(BLOBFILE(path = tensor<string, []>("@model_path/weights/weight.bin"), offset = tensor<uint64, []>(9788800)))];
            tensor<fp16, [1, 384, 1, 1037]> attention_output_5_cast_fp16 = conv(bias = attention_output_5_bias_0_to_fp16, dilations = var_757, groups = var_44, pad = input_33_pad_0, pad_type = input_33_pad_type_0, strides = var_755, weight = attention_output_5_weight_0_to_fp16, x = input_31_cast_fp16)[name = tensor<string, []>("attention_output_5_cast_fp16")];
            tensor<fp16, [1, 384, 1, 1037]> inputs_11_cast_fp16 = add(x = attention_output_5_cast_fp16, y = inputs_9_cast_fp16)[name = tensor<string, []>("inputs_11_cast_fp16")];
            tensor<int32, [1]> input_35_axes_0 = const()[name = tensor<string, []>("input_35_axes_0"), val = tensor<int32, [1]>([1])];
            tensor<fp16, [384]> input_35_gamma_0_to_fp16 = const()[name = tensor<string, []>("input_35_gamma_0_to_fp16"), val = tensor<fp16, [384]>(BLOBFILE(path = tensor<string, []>("@model_path/weights/weight.bin"), offset = tensor<uint64, []>(9789632)))];
            tensor<fp16, [384]> input_35_beta_0_to_fp16 = const()[name = tensor<string, []>("input_35_beta_0_to_fp16"), val = tensor<fp16, [384]>(BLOBFILE(path = tensor<string, []>("@model_path/weights/weight.bin"), offset = tensor<uint64, []>(9790464)))];
            tensor<fp16, []> var_775_to_fp16 = const()[name = tensor<string, []>("op_775_to_fp16"), val = tensor<fp16, []>(0x1.1p-20)];
            tensor<fp16, [1, 384, 1, 1037]> input_35_cast_fp16 = layer_norm(axes = input_35_axes_0, beta = input_35_beta_0_to_fp16, epsilon = var_775_to_fp16, gamma = input_35_gamma_0_to_fp16, x = inputs_11_cast_fp16)[name = tensor<string, []>("input_35_cast_fp16")];
            tensor<int32, [2]> var_789 = const()[name = tensor<string, []>("op_789"), val = tensor<int32, [2]>([1, 1])];
            tensor<int32, [2]> var_791 = const()[name = tensor<string, []>("op_791"), val = tensor<int32, [2]>([1, 1])];
            tensor<string, []> input_37_pad_type_0 = const()[name = tensor<string, []>("input_37_pad_type_0"), val = tensor<string, []>("custom")];
            tensor<int32, [4]> input_37_pad_0 = const()[name = tensor<string, []>("input_37_pad_0"), val = tensor<int32, [4]>([0, 0, 0, 0])];
            tensor<fp16, [1536, 384, 1, 1]> model_backbone_encoder_layer_2_mlp_fc1_weight_to_fp16 = const()[name = tensor<string, []>("model_backbone_encoder_layer_2_mlp_fc1_weight_to_fp16"), val = tensor<fp16, [1536, 384, 1, 1]>(BLOBFILE(path = tensor<string, []>("@model_path/weights/weight.bin"), offset = tensor<uint64, []>(9791296)))];
            tensor<fp16, [1536]> model_backbone_encoder_layer_2_mlp_fc1_bias_to_fp16 = const()[name = tensor<string, []>("model_backbone_encoder_layer_2_mlp_fc1_bias_to_fp16"), val = tensor<fp16, [1536]>(BLOBFILE(path = tensor<string, []>("@model_path/weights/weight.bin"), offset = tensor<uint64, []>(10971008)))];
            tensor<fp16, [1, 1536, 1, 1037]> input_37_cast_fp16 = conv(bias = model_backbone_encoder_layer_2_mlp_fc1_bias_to_fp16, dilations = var_791, groups = var_44, pad = input_37_pad_0, pad_type = input_37_pad_type_0, strides = var_789, weight = model_backbone_encoder_layer_2_mlp_fc1_weight_to_fp16, x = input_35_cast_fp16)[name = tensor<string, []>("input_37_cast_fp16")];
            tensor<string, []> input_39_mode_0 = const()[name = tensor<string, []>("input_39_mode_0"), val = tensor<string, []>("EXACT")];
            tensor<fp16, [1, 1536, 1, 1037]> input_39_cast_fp16 = gelu(mode = input_39_mode_0, x = input_37_cast_fp16)[name = tensor<string, []>("input_39_cast_fp16")];
            tensor<int32, [2]> var_797 = const()[name = tensor<string, []>("op_797"), val = tensor<int32, [2]>([1, 1])];
            tensor<int32, [2]> var_799 = const()[name = tensor<string, []>("op_799"), val = tensor<int32, [2]>([1, 1])];
            tensor<string, []> hidden_state_11_pad_type_0 = const()[name = tensor<string, []>("hidden_state_11_pad_type_0"), val = tensor<string, []>("custom")];
            tensor<int32, [4]> hidden_state_11_pad_0 = const()[name = tensor<string, []>("hidden_state_11_pad_0"), val = tensor<int32, [4]>([0, 0, 0, 0])];
            tensor<fp16, [384, 1536, 1, 1]> layer_output_5_weight_0_to_fp16 = const()[name = tensor<string, []>("layer_output_5_weight_0_to_fp16"), val = tensor<fp16, [384, 1536, 1, 1]>(BLOBFILE(path = tensor<string, []>("@model_path/weights/weight.bin"), offset = tensor<uint64, []>(10974144)))];
            tensor<fp16, [384]> layer_output_5_bias_0_to_fp16 = const()[name = tensor<string, []>("layer_output_5_bias_0_to_fp16"), val = tensor<fp16, [384]>(BLOBFILE(path = tensor<string, []>("@model_path/weights/weight.bin"), offset = tensor<uint64, []>(12153856)))];
            tensor<fp16, [1, 384, 1, 1037]> layer_output_5_cast_fp16 = conv(bias = layer_output_5_bias_0_to_fp16, dilations = var_799, groups = var_44, pad = hidden_state_11_pad_0, pad_type = hidden_state_11_pad_type_0, strides = var_797, weight = layer_output_5_weight_0_to_fp16, x = input_39_cast_fp16)[name = tensor<string, []>("layer_output_5_cast_fp16")];
            tensor<fp16, [1, 384, 1, 1037]> inputs_13_cast_fp16 = add(x = layer_output_5_cast_fp16, y = inputs_11_cast_fp16)[name = tensor<string, []>("inputs_13_cast_fp16")];
            tensor<int32, [1]> input_41_axes_0 = const()[name = tensor<string, []>("input_41_axes_0"), val = tensor<int32, [1]>([1])];
            tensor<fp16, [384]> input_41_gamma_0_to_fp16 = const()[name = tensor<string, []>("input_41_gamma_0_to_fp16"), val = tensor<fp16, [384]>(BLOBFILE(path = tensor<string, []>("@model_path/weights/weight.bin"), offset = tensor<uint64, []>(12154688)))];
            tensor<fp16, [384]> input_41_beta_0_to_fp16 = const()[name = tensor<string, []>("input_41_beta_0_to_fp16"), val = tensor<fp16, [384]>(BLOBFILE(path = tensor<string, []>("@model_path/weights/weight.bin"), offset = tensor<uint64, []>(12155520)))];
            tensor<fp16, []> var_822_to_fp16 = const()[name = tensor<string, []>("op_822_to_fp16"), val = tensor<fp16, []>(0x1.1p-20)];
            tensor<fp16, [1, 384, 1, 1037]> input_41_cast_fp16 = layer_norm(axes = input_41_axes_0, beta = input_41_beta_0_to_fp16, epsilon = var_822_to_fp16, gamma = input_41_gamma_0_to_fp16, x = inputs_13_cast_fp16)[name = tensor<string, []>("input_41_cast_fp16")];
            tensor<int32, [2]> var_839 = const()[name = tensor<string, []>("op_839"), val = tensor<int32, [2]>([1, 1])];
            tensor<int32, [2]> var_841 = const()[name = tensor<string, []>("op_841"), val = tensor<int32, [2]>([1, 1])];
            tensor<string, []> k_13_pad_type_0 = const()[name = tensor<string, []>("k_13_pad_type_0"), val = tensor<string, []>("custom")];
            tensor<int32, [4]> k_13_pad_0 = const()[name = tensor<string, []>("k_13_pad_0"), val = tensor<int32, [4]>([0, 0, 0, 0])];
            tensor<fp16, [384, 384, 1, 1]> model_backbone_encoder_layer_3_attention_attention_key_weight_to_fp16 = const()[name = tensor<string, []>("model_backbone_encoder_layer_3_attention_attention_key_weight_to_fp16"), val = tensor<fp16, [384, 384, 1, 1]>(BLOBFILE(path = tensor<string, []>("@model_path/weights/weight.bin"), offset = tensor<uint64, []>(12156352)))];
            tensor<fp16, [384]> model_backbone_encoder_layer_3_attention_attention_key_bias_to_fp16 = const()[name = tensor<string, []>("model_backbone_encoder_layer_3_attention_attention_key_bias_to_fp16"), val = tensor<fp16, [384]>(BLOBFILE(path = tensor<string, []>("@model_path/weights/weight.bin"), offset = tensor<uint64, []>(12451328)))];
            tensor<fp16, [1, 384, 1, 1037]> k_13_cast_fp16 = conv(bias = model_backbone_encoder_layer_3_attention_attention_key_bias_to_fp16, dilations = var_841, groups = var_44, pad = k_13_pad_0, pad_type = k_13_pad_type_0, strides = var_839, weight = model_backbone_encoder_layer_3_attention_attention_key_weight_to_fp16, x = input_41_cast_fp16)[name = tensor<string, []>("k_13_cast_fp16")];
            tensor<int32, [2]> var_846 = const()[name = tensor<string, []>("op_846"), val = tensor<int32, [2]>([1, 1])];
            tensor<int32, [2]> var_848 = const()[name = tensor<string, []>("op_848"), val = tensor<int32, [2]>([1, 1])];
            tensor<string, []> v_7_pad_type_0 = const()[name = tensor<string, []>("v_7_pad_type_0"), val = tensor<string, []>("custom")];
            tensor<int32, [4]> v_7_pad_0 = const()[name = tensor<string, []>("v_7_pad_0"), val = tensor<int32, [4]>([0, 0, 0, 0])];
            tensor<fp16, [384, 384, 1, 1]> model_backbone_encoder_layer_3_attention_attention_value_weight_to_fp16 = const()[name = tensor<string, []>("model_backbone_encoder_layer_3_attention_attention_value_weight_to_fp16"), val = tensor<fp16, [384, 384, 1, 1]>(BLOBFILE(path = tensor<string, []>("@model_path/weights/weight.bin"), offset = tensor<uint64, []>(12452160)))];
            tensor<fp16, [384]> model_backbone_encoder_layer_3_attention_attention_value_bias_to_fp16 = const()[name = tensor<string, []>("model_backbone_encoder_layer_3_attention_attention_value_bias_to_fp16"), val = tensor<fp16, [384]>(BLOBFILE(path = tensor<string, []>("@model_path/weights/weight.bin"), offset = tensor<uint64, []>(12747136)))];
            tensor<fp16, [1, 384, 1, 1037]> v_7_cast_fp16 = conv(bias = model_backbone_encoder_layer_3_attention_attention_value_bias_to_fp16, dilations = var_848, groups = var_44, pad = v_7_pad_0, pad_type = v_7_pad_type_0, strides = var_846, weight = model_backbone_encoder_layer_3_attention_attention_value_weight_to_fp16, x = input_41_cast_fp16)[name = tensor<string, []>("v_7_cast_fp16")];
            tensor<int32, [2]> var_853 = const()[name = tensor<string, []>("op_853"), val = tensor<int32, [2]>([1, 1])];
            tensor<int32, [2]> var_855 = const()[name = tensor<string, []>("op_855"), val = tensor<int32, [2]>([1, 1])];
            tensor<string, []> q_7_pad_type_0 = const()[name = tensor<string, []>("q_7_pad_type_0"), val = tensor<string, []>("custom")];
            tensor<int32, [4]> q_7_pad_0 = const()[name = tensor<string, []>("q_7_pad_0"), val = tensor<int32, [4]>([0, 0, 0, 0])];
            tensor<fp16, [384, 384, 1, 1]> model_backbone_encoder_layer_3_attention_attention_query_weight_to_fp16 = const()[name = tensor<string, []>("model_backbone_encoder_layer_3_attention_attention_query_weight_to_fp16"), val = tensor<fp16, [384, 384, 1, 1]>(BLOBFILE(path = tensor<string, []>("@model_path/weights/weight.bin"), offset = tensor<uint64, []>(12747968)))];
            tensor<fp16, [384]> model_backbone_encoder_layer_3_attention_attention_query_bias_to_fp16 = const()[name = tensor<string, []>("model_backbone_encoder_layer_3_attention_attention_query_bias_to_fp16"), val = tensor<fp16, [384]>(BLOBFILE(path = tensor<string, []>("@model_path/weights/weight.bin"), offset = tensor<uint64, []>(13042944)))];
            tensor<fp16, [1, 384, 1, 1037]> q_7_cast_fp16 = conv(bias = model_backbone_encoder_layer_3_attention_attention_query_bias_to_fp16, dilations = var_855, groups = var_44, pad = q_7_pad_0, pad_type = q_7_pad_type_0, strides = var_853, weight = model_backbone_encoder_layer_3_attention_attention_query_weight_to_fp16, x = input_41_cast_fp16)[name = tensor<string, []>("q_7_cast_fp16")];
            tensor<int32, [4]> var_859_begin_0 = const()[name = tensor<string, []>("op_859_begin_0"), val = tensor<int32, [4]>([0, 0, 0, 0])];
            tensor<int32, [4]> var_859_end_0 = const()[name = tensor<string, []>("op_859_end_0"), val = tensor<int32, [4]>([1, 64, 1, 1037])];
            tensor<bool, [4]> var_859_end_mask_0 = const()[name = tensor<string, []>("op_859_end_mask_0"), val = tensor<bool, [4]>([true, false, true, true])];
            tensor<fp16, [1, 64, 1, 1037]> var_859_cast_fp16 = slice_by_index(begin = var_859_begin_0, end = var_859_end_0, end_mask = var_859_end_mask_0, x = q_7_cast_fp16)[name = tensor<string, []>("op_859_cast_fp16")];
            tensor<int32, [4]> var_863_begin_0 = const()[name = tensor<string, []>("op_863_begin_0"), val = tensor<int32, [4]>([0, 64, 0, 0])];
            tensor<int32, [4]> var_863_end_0 = const()[name = tensor<string, []>("op_863_end_0"), val = tensor<int32, [4]>([1, 128, 1, 1037])];
            tensor<bool, [4]> var_863_end_mask_0 = const()[name = tensor<string, []>("op_863_end_mask_0"), val = tensor<bool, [4]>([true, false, true, true])];
            tensor<fp16, [1, 64, 1, 1037]> var_863_cast_fp16 = slice_by_index(begin = var_863_begin_0, end = var_863_end_0, end_mask = var_863_end_mask_0, x = q_7_cast_fp16)[name = tensor<string, []>("op_863_cast_fp16")];
            tensor<int32, [4]> var_867_begin_0 = const()[name = tensor<string, []>("op_867_begin_0"), val = tensor<int32, [4]>([0, 128, 0, 0])];
            tensor<int32, [4]> var_867_end_0 = const()[name = tensor<string, []>("op_867_end_0"), val = tensor<int32, [4]>([1, 192, 1, 1037])];
            tensor<bool, [4]> var_867_end_mask_0 = const()[name = tensor<string, []>("op_867_end_mask_0"), val = tensor<bool, [4]>([true, false, true, true])];
            tensor<fp16, [1, 64, 1, 1037]> var_867_cast_fp16 = slice_by_index(begin = var_867_begin_0, end = var_867_end_0, end_mask = var_867_end_mask_0, x = q_7_cast_fp16)[name = tensor<string, []>("op_867_cast_fp16")];
            tensor<int32, [4]> var_871_begin_0 = const()[name = tensor<string, []>("op_871_begin_0"), val = tensor<int32, [4]>([0, 192, 0, 0])];
            tensor<int32, [4]> var_871_end_0 = const()[name = tensor<string, []>("op_871_end_0"), val = tensor<int32, [4]>([1, 256, 1, 1037])];
            tensor<bool, [4]> var_871_end_mask_0 = const()[name = tensor<string, []>("op_871_end_mask_0"), val = tensor<bool, [4]>([true, false, true, true])];
            tensor<fp16, [1, 64, 1, 1037]> var_871_cast_fp16 = slice_by_index(begin = var_871_begin_0, end = var_871_end_0, end_mask = var_871_end_mask_0, x = q_7_cast_fp16)[name = tensor<string, []>("op_871_cast_fp16")];
            tensor<int32, [4]> var_875_begin_0 = const()[name = tensor<string, []>("op_875_begin_0"), val = tensor<int32, [4]>([0, 256, 0, 0])];
            tensor<int32, [4]> var_875_end_0 = const()[name = tensor<string, []>("op_875_end_0"), val = tensor<int32, [4]>([1, 320, 1, 1037])];
            tensor<bool, [4]> var_875_end_mask_0 = const()[name = tensor<string, []>("op_875_end_mask_0"), val = tensor<bool, [4]>([true, false, true, true])];
            tensor<fp16, [1, 64, 1, 1037]> var_875_cast_fp16 = slice_by_index(begin = var_875_begin_0, end = var_875_end_0, end_mask = var_875_end_mask_0, x = q_7_cast_fp16)[name = tensor<string, []>("op_875_cast_fp16")];
            tensor<int32, [4]> var_879_begin_0 = const()[name = tensor<string, []>("op_879_begin_0"), val = tensor<int32, [4]>([0, 320, 0, 0])];
            tensor<int32, [4]> var_879_end_0 = const()[name = tensor<string, []>("op_879_end_0"), val = tensor<int32, [4]>([1, 384, 1, 1037])];
            tensor<bool, [4]> var_879_end_mask_0 = const()[name = tensor<string, []>("op_879_end_mask_0"), val = tensor<bool, [4]>([true, false, true, true])];
            tensor<fp16, [1, 64, 1, 1037]> var_879_cast_fp16 = slice_by_index(begin = var_879_begin_0, end = var_879_end_0, end_mask = var_879_end_mask_0, x = q_7_cast_fp16)[name = tensor<string, []>("op_879_cast_fp16")];
            tensor<int32, [4]> k_15_perm_0 = const()[name = tensor<string, []>("k_15_perm_0"), val = tensor<int32, [4]>([0, 3, 2, 1])];
            tensor<int32, [4]> var_886_begin_0 = const()[name = tensor<string, []>("op_886_begin_0"), val = tensor<int32, [4]>([0, 0, 0, 0])];
            tensor<int32, [4]> var_886_end_0 = const()[name = tensor<string, []>("op_886_end_0"), val = tensor<int32, [4]>([1, 1037, 1, 64])];
            tensor<bool, [4]> var_886_end_mask_0 = const()[name = tensor<string, []>("op_886_end_mask_0"), val = tensor<bool, [4]>([true, true, true, false])];
            tensor<fp16, [1, 1037, 1, 384]> transpose_16 = transpose(perm = k_15_perm_0, x = k_13_cast_fp16)[name = tensor<string, []>("transpose_16")];
            tensor<fp16, [1, 1037, 1, 64]> var_886_cast_fp16 = slice_by_index(begin = var_886_begin_0, end = var_886_end_0, end_mask = var_886_end_mask_0, x = transpose_16)[name = tensor<string, []>("op_886_cast_fp16")];
            tensor<int32, [4]> var_890_begin_0 = const()[name = tensor<string, []>("op_890_begin_0"), val = tensor<int32, [4]>([0, 0, 0, 64])];
            tensor<int32, [4]> var_890_end_0 = const()[name = tensor<string, []>("op_890_end_0"), val = tensor<int32, [4]>([1, 1037, 1, 128])];
            tensor<bool, [4]> var_890_end_mask_0 = const()[name = tensor<string, []>("op_890_end_mask_0"), val = tensor<bool, [4]>([true, true, true, false])];
            tensor<fp16, [1, 1037, 1, 64]> var_890_cast_fp16 = slice_by_index(begin = var_890_begin_0, end = var_890_end_0, end_mask = var_890_end_mask_0, x = transpose_16)[name = tensor<string, []>("op_890_cast_fp16")];
            tensor<int32, [4]> var_894_begin_0 = const()[name = tensor<string, []>("op_894_begin_0"), val = tensor<int32, [4]>([0, 0, 0, 128])];
            tensor<int32, [4]> var_894_end_0 = const()[name = tensor<string, []>("op_894_end_0"), val = tensor<int32, [4]>([1, 1037, 1, 192])];
            tensor<bool, [4]> var_894_end_mask_0 = const()[name = tensor<string, []>("op_894_end_mask_0"), val = tensor<bool, [4]>([true, true, true, false])];
            tensor<fp16, [1, 1037, 1, 64]> var_894_cast_fp16 = slice_by_index(begin = var_894_begin_0, end = var_894_end_0, end_mask = var_894_end_mask_0, x = transpose_16)[name = tensor<string, []>("op_894_cast_fp16")];
            tensor<int32, [4]> var_898_begin_0 = const()[name = tensor<string, []>("op_898_begin_0"), val = tensor<int32, [4]>([0, 0, 0, 192])];
            tensor<int32, [4]> var_898_end_0 = const()[name = tensor<string, []>("op_898_end_0"), val = tensor<int32, [4]>([1, 1037, 1, 256])];
            tensor<bool, [4]> var_898_end_mask_0 = const()[name = tensor<string, []>("op_898_end_mask_0"), val = tensor<bool, [4]>([true, true, true, false])];
            tensor<fp16, [1, 1037, 1, 64]> var_898_cast_fp16 = slice_by_index(begin = var_898_begin_0, end = var_898_end_0, end_mask = var_898_end_mask_0, x = transpose_16)[name = tensor<string, []>("op_898_cast_fp16")];
            tensor<int32, [4]> var_902_begin_0 = const()[name = tensor<string, []>("op_902_begin_0"), val = tensor<int32, [4]>([0, 0, 0, 256])];
            tensor<int32, [4]> var_902_end_0 = const()[name = tensor<string, []>("op_902_end_0"), val = tensor<int32, [4]>([1, 1037, 1, 320])];
            tensor<bool, [4]> var_902_end_mask_0 = const()[name = tensor<string, []>("op_902_end_mask_0"), val = tensor<bool, [4]>([true, true, true, false])];
            tensor<fp16, [1, 1037, 1, 64]> var_902_cast_fp16 = slice_by_index(begin = var_902_begin_0, end = var_902_end_0, end_mask = var_902_end_mask_0, x = transpose_16)[name = tensor<string, []>("op_902_cast_fp16")];
            tensor<int32, [4]> var_906_begin_0 = const()[name = tensor<string, []>("op_906_begin_0"), val = tensor<int32, [4]>([0, 0, 0, 320])];
            tensor<int32, [4]> var_906_end_0 = const()[name = tensor<string, []>("op_906_end_0"), val = tensor<int32, [4]>([1, 1037, 1, 384])];
            tensor<bool, [4]> var_906_end_mask_0 = const()[name = tensor<string, []>("op_906_end_mask_0"), val = tensor<bool, [4]>([true, true, true, false])];
            tensor<fp16, [1, 1037, 1, 64]> var_906_cast_fp16 = slice_by_index(begin = var_906_begin_0, end = var_906_end_0, end_mask = var_906_end_mask_0, x = transpose_16)[name = tensor<string, []>("op_906_cast_fp16")];
            tensor<int32, [4]> var_908_begin_0 = const()[name = tensor<string, []>("op_908_begin_0"), val = tensor<int32, [4]>([0, 0, 0, 0])];
            tensor<int32, [4]> var_908_end_0 = const()[name = tensor<string, []>("op_908_end_0"), val = tensor<int32, [4]>([1, 64, 1, 1037])];
            tensor<bool, [4]> var_908_end_mask_0 = const()[name = tensor<string, []>("op_908_end_mask_0"), val = tensor<bool, [4]>([true, false, true, true])];
            tensor<fp16, [1, 64, 1, 1037]> var_908_cast_fp16 = slice_by_index(begin = var_908_begin_0, end = var_908_end_0, end_mask = var_908_end_mask_0, x = v_7_cast_fp16)[name = tensor<string, []>("op_908_cast_fp16")];
            tensor<int32, [4]> var_912_begin_0 = const()[name = tensor<string, []>("op_912_begin_0"), val = tensor<int32, [4]>([0, 64, 0, 0])];
            tensor<int32, [4]> var_912_end_0 = const()[name = tensor<string, []>("op_912_end_0"), val = tensor<int32, [4]>([1, 128, 1, 1037])];
            tensor<bool, [4]> var_912_end_mask_0 = const()[name = tensor<string, []>("op_912_end_mask_0"), val = tensor<bool, [4]>([true, false, true, true])];
            tensor<fp16, [1, 64, 1, 1037]> var_912_cast_fp16 = slice_by_index(begin = var_912_begin_0, end = var_912_end_0, end_mask = var_912_end_mask_0, x = v_7_cast_fp16)[name = tensor<string, []>("op_912_cast_fp16")];
            tensor<int32, [4]> var_916_begin_0 = const()[name = tensor<string, []>("op_916_begin_0"), val = tensor<int32, [4]>([0, 128, 0, 0])];
            tensor<int32, [4]> var_916_end_0 = const()[name = tensor<string, []>("op_916_end_0"), val = tensor<int32, [4]>([1, 192, 1, 1037])];
            tensor<bool, [4]> var_916_end_mask_0 = const()[name = tensor<string, []>("op_916_end_mask_0"), val = tensor<bool, [4]>([true, false, true, true])];
            tensor<fp16, [1, 64, 1, 1037]> var_916_cast_fp16 = slice_by_index(begin = var_916_begin_0, end = var_916_end_0, end_mask = var_916_end_mask_0, x = v_7_cast_fp16)[name = tensor<string, []>("op_916_cast_fp16")];
            tensor<int32, [4]> var_920_begin_0 = const()[name = tensor<string, []>("op_920_begin_0"), val = tensor<int32, [4]>([0, 192, 0, 0])];
            tensor<int32, [4]> var_920_end_0 = const()[name = tensor<string, []>("op_920_end_0"), val = tensor<int32, [4]>([1, 256, 1, 1037])];
            tensor<bool, [4]> var_920_end_mask_0 = const()[name = tensor<string, []>("op_920_end_mask_0"), val = tensor<bool, [4]>([true, false, true, true])];
            tensor<fp16, [1, 64, 1, 1037]> var_920_cast_fp16 = slice_by_index(begin = var_920_begin_0, end = var_920_end_0, end_mask = var_920_end_mask_0, x = v_7_cast_fp16)[name = tensor<string, []>("op_920_cast_fp16")];
            tensor<int32, [4]> var_924_begin_0 = const()[name = tensor<string, []>("op_924_begin_0"), val = tensor<int32, [4]>([0, 256, 0, 0])];
            tensor<int32, [4]> var_924_end_0 = const()[name = tensor<string, []>("op_924_end_0"), val = tensor<int32, [4]>([1, 320, 1, 1037])];
            tensor<bool, [4]> var_924_end_mask_0 = const()[name = tensor<string, []>("op_924_end_mask_0"), val = tensor<bool, [4]>([true, false, true, true])];
            tensor<fp16, [1, 64, 1, 1037]> var_924_cast_fp16 = slice_by_index(begin = var_924_begin_0, end = var_924_end_0, end_mask = var_924_end_mask_0, x = v_7_cast_fp16)[name = tensor<string, []>("op_924_cast_fp16")];
            tensor<int32, [4]> var_928_begin_0 = const()[name = tensor<string, []>("op_928_begin_0"), val = tensor<int32, [4]>([0, 320, 0, 0])];
            tensor<int32, [4]> var_928_end_0 = const()[name = tensor<string, []>("op_928_end_0"), val = tensor<int32, [4]>([1, 384, 1, 1037])];
            tensor<bool, [4]> var_928_end_mask_0 = const()[name = tensor<string, []>("op_928_end_mask_0"), val = tensor<bool, [4]>([true, false, true, true])];
            tensor<fp16, [1, 64, 1, 1037]> var_928_cast_fp16 = slice_by_index(begin = var_928_begin_0, end = var_928_end_0, end_mask = var_928_end_mask_0, x = v_7_cast_fp16)[name = tensor<string, []>("op_928_cast_fp16")];
            tensor<string, []> var_932_equation_0 = const()[name = tensor<string, []>("op_932_equation_0"), val = tensor<string, []>("bkhc,bchq->bkhq")];
            tensor<fp16, [1, 1037, 1, 1037]> var_932_cast_fp16 = einsum(equation = var_932_equation_0, values = (var_886_cast_fp16, var_859_cast_fp16))[name = tensor<string, []>("op_932_cast_fp16")];
            tensor<fp16, []> var_933_to_fp16 = const()[name = tensor<string, []>("op_933_to_fp16"), val = tensor<fp16, []>(0x1p-3)];
            tensor<fp16, [1, 1037, 1, 1037]> aw_37_cast_fp16 = mul(x = var_932_cast_fp16, y = var_933_to_fp16)[name = tensor<string, []>("aw_37_cast_fp16")];
            tensor<string, []> var_936_equation_0 = const()[name = tensor<string, []>("op_936_equation_0"), val = tensor<string, []>("bkhc,bchq->bkhq")];
            tensor<fp16, [1, 1037, 1, 1037]> var_936_cast_fp16 = einsum(equation = var_936_equation_0, values = (var_890_cast_fp16, var_863_cast_fp16))[name = tensor<string, []>("op_936_cast_fp16")];
            tensor<fp16, []> var_937_to_fp16 = const()[name = tensor<string, []>("op_937_to_fp16"), val = tensor<fp16, []>(0x1p-3)];
            tensor<fp16, [1, 1037, 1, 1037]> aw_39_cast_fp16 = mul(x = var_936_cast_fp16, y = var_937_to_fp16)[name = tensor<string, []>("aw_39_cast_fp16")];
            tensor<string, []> var_940_equation_0 = const()[name = tensor<string, []>("op_940_equation_0"), val = tensor<string, []>("bkhc,bchq->bkhq")];
            tensor<fp16, [1, 1037, 1, 1037]> var_940_cast_fp16 = einsum(equation = var_940_equation_0, values = (var_894_cast_fp16, var_867_cast_fp16))[name = tensor<string, []>("op_940_cast_fp16")];
            tensor<fp16, []> var_941_to_fp16 = const()[name = tensor<string, []>("op_941_to_fp16"), val = tensor<fp16, []>(0x1p-3)];
            tensor<fp16, [1, 1037, 1, 1037]> aw_41_cast_fp16 = mul(x = var_940_cast_fp16, y = var_941_to_fp16)[name = tensor<string, []>("aw_41_cast_fp16")];
            tensor<string, []> var_944_equation_0 = const()[name = tensor<string, []>("op_944_equation_0"), val = tensor<string, []>("bkhc,bchq->bkhq")];
            tensor<fp16, [1, 1037, 1, 1037]> var_944_cast_fp16 = einsum(equation = var_944_equation_0, values = (var_898_cast_fp16, var_871_cast_fp16))[name = tensor<string, []>("op_944_cast_fp16")];
            tensor<fp16, []> var_945_to_fp16 = const()[name = tensor<string, []>("op_945_to_fp16"), val = tensor<fp16, []>(0x1p-3)];
            tensor<fp16, [1, 1037, 1, 1037]> aw_43_cast_fp16 = mul(x = var_944_cast_fp16, y = var_945_to_fp16)[name = tensor<string, []>("aw_43_cast_fp16")];
            tensor<string, []> var_948_equation_0 = const()[name = tensor<string, []>("op_948_equation_0"), val = tensor<string, []>("bkhc,bchq->bkhq")];
            tensor<fp16, [1, 1037, 1, 1037]> var_948_cast_fp16 = einsum(equation = var_948_equation_0, values = (var_902_cast_fp16, var_875_cast_fp16))[name = tensor<string, []>("op_948_cast_fp16")];
            tensor<fp16, []> var_949_to_fp16 = const()[name = tensor<string, []>("op_949_to_fp16"), val = tensor<fp16, []>(0x1p-3)];
            tensor<fp16, [1, 1037, 1, 1037]> aw_45_cast_fp16 = mul(x = var_948_cast_fp16, y = var_949_to_fp16)[name = tensor<string, []>("aw_45_cast_fp16")];
            tensor<string, []> var_952_equation_0 = const()[name = tensor<string, []>("op_952_equation_0"), val = tensor<string, []>("bkhc,bchq->bkhq")];
            tensor<fp16, [1, 1037, 1, 1037]> var_952_cast_fp16 = einsum(equation = var_952_equation_0, values = (var_906_cast_fp16, var_879_cast_fp16))[name = tensor<string, []>("op_952_cast_fp16")];
            tensor<fp16, []> var_953_to_fp16 = const()[name = tensor<string, []>("op_953_to_fp16"), val = tensor<fp16, []>(0x1p-3)];
            tensor<fp16, [1, 1037, 1, 1037]> aw_47_cast_fp16 = mul(x = var_952_cast_fp16, y = var_953_to_fp16)[name = tensor<string, []>("aw_47_cast_fp16")];
            tensor<fp16, [1, 1037, 1, 1037]> var_955_cast_fp16 = softmax(axis = var_44, x = aw_37_cast_fp16)[name = tensor<string, []>("op_955_cast_fp16")];
            tensor<fp16, [1, 1037, 1, 1037]> var_956_cast_fp16 = softmax(axis = var_44, x = aw_39_cast_fp16)[name = tensor<string, []>("op_956_cast_fp16")];
            tensor<fp16, [1, 1037, 1, 1037]> var_957_cast_fp16 = softmax(axis = var_44, x = aw_41_cast_fp16)[name = tensor<string, []>("op_957_cast_fp16")];
            tensor<fp16, [1, 1037, 1, 1037]> var_958_cast_fp16 = softmax(axis = var_44, x = aw_43_cast_fp16)[name = tensor<string, []>("op_958_cast_fp16")];
            tensor<fp16, [1, 1037, 1, 1037]> var_959_cast_fp16 = softmax(axis = var_44, x = aw_45_cast_fp16)[name = tensor<string, []>("op_959_cast_fp16")];
            tensor<fp16, [1, 1037, 1, 1037]> var_960_cast_fp16 = softmax(axis = var_44, x = aw_47_cast_fp16)[name = tensor<string, []>("op_960_cast_fp16")];
            tensor<string, []> var_962_equation_0 = const()[name = tensor<string, []>("op_962_equation_0"), val = tensor<string, []>("bchk,bkhq->bchq")];
            tensor<fp16, [1, 64, 1, 1037]> var_962_cast_fp16 = einsum(equation = var_962_equation_0, values = (var_908_cast_fp16, var_955_cast_fp16))[name = tensor<string, []>("op_962_cast_fp16")];
            tensor<string, []> var_964_equation_0 = const()[name = tensor<string, []>("op_964_equation_0"), val = tensor<string, []>("bchk,bkhq->bchq")];
            tensor<fp16, [1, 64, 1, 1037]> var_964_cast_fp16 = einsum(equation = var_964_equation_0, values = (var_912_cast_fp16, var_956_cast_fp16))[name = tensor<string, []>("op_964_cast_fp16")];
            tensor<string, []> var_966_equation_0 = const()[name = tensor<string, []>("op_966_equation_0"), val = tensor<string, []>("bchk,bkhq->bchq")];
            tensor<fp16, [1, 64, 1, 1037]> var_966_cast_fp16 = einsum(equation = var_966_equation_0, values = (var_916_cast_fp16, var_957_cast_fp16))[name = tensor<string, []>("op_966_cast_fp16")];
            tensor<string, []> var_968_equation_0 = const()[name = tensor<string, []>("op_968_equation_0"), val = tensor<string, []>("bchk,bkhq->bchq")];
            tensor<fp16, [1, 64, 1, 1037]> var_968_cast_fp16 = einsum(equation = var_968_equation_0, values = (var_920_cast_fp16, var_958_cast_fp16))[name = tensor<string, []>("op_968_cast_fp16")];
            tensor<string, []> var_970_equation_0 = const()[name = tensor<string, []>("op_970_equation_0"), val = tensor<string, []>("bchk,bkhq->bchq")];
            tensor<fp16, [1, 64, 1, 1037]> var_970_cast_fp16 = einsum(equation = var_970_equation_0, values = (var_924_cast_fp16, var_959_cast_fp16))[name = tensor<string, []>("op_970_cast_fp16")];
            tensor<string, []> var_972_equation_0 = const()[name = tensor<string, []>("op_972_equation_0"), val = tensor<string, []>("bchk,bkhq->bchq")];
            tensor<fp16, [1, 64, 1, 1037]> var_972_cast_fp16 = einsum(equation = var_972_equation_0, values = (var_928_cast_fp16, var_960_cast_fp16))[name = tensor<string, []>("op_972_cast_fp16")];
            tensor<bool, []> input_43_interleave_0 = const()[name = tensor<string, []>("input_43_interleave_0"), val = tensor<bool, []>(false)];
            tensor<fp16, [1, 384, 1, 1037]> input_43_cast_fp16 = concat(axis = var_44, interleave = input_43_interleave_0, values = (var_962_cast_fp16, var_964_cast_fp16, var_966_cast_fp16, var_968_cast_fp16, var_970_cast_fp16, var_972_cast_fp16))[name = tensor<string, []>("input_43_cast_fp16")];
            tensor<int32, [2]> var_978 = const()[name = tensor<string, []>("op_978"), val = tensor<int32, [2]>([1, 1])];
            tensor<int32, [2]> var_980 = const()[name = tensor<string, []>("op_980"), val = tensor<int32, [2]>([1, 1])];
            tensor<string, []> input_45_pad_type_0 = const()[name = tensor<string, []>("input_45_pad_type_0"), val = tensor<string, []>("custom")];
            tensor<int32, [4]> input_45_pad_0 = const()[name = tensor<string, []>("input_45_pad_0"), val = tensor<int32, [4]>([0, 0, 0, 0])];
            tensor<fp16, [384, 384, 1, 1]> attention_output_7_weight_0_to_fp16 = const()[name = tensor<string, []>("attention_output_7_weight_0_to_fp16"), val = tensor<fp16, [384, 384, 1, 1]>(BLOBFILE(path = tensor<string, []>("@model_path/weights/weight.bin"), offset = tensor<uint64, []>(13043776)))];
            tensor<fp16, [384]> attention_output_7_bias_0_to_fp16 = const()[name = tensor<string, []>("attention_output_7_bias_0_to_fp16"), val = tensor<fp16, [384]>(BLOBFILE(path = tensor<string, []>("@model_path/weights/weight.bin"), offset = tensor<uint64, []>(13338752)))];
            tensor<fp16, [1, 384, 1, 1037]> attention_output_7_cast_fp16 = conv(bias = attention_output_7_bias_0_to_fp16, dilations = var_980, groups = var_44, pad = input_45_pad_0, pad_type = input_45_pad_type_0, strides = var_978, weight = attention_output_7_weight_0_to_fp16, x = input_43_cast_fp16)[name = tensor<string, []>("attention_output_7_cast_fp16")];
            tensor<fp16, [1, 384, 1, 1037]> inputs_15_cast_fp16 = add(x = attention_output_7_cast_fp16, y = inputs_13_cast_fp16)[name = tensor<string, []>("inputs_15_cast_fp16")];
            tensor<int32, [1]> input_47_axes_0 = const()[name = tensor<string, []>("input_47_axes_0"), val = tensor<int32, [1]>([1])];
            tensor<fp16, [384]> input_47_gamma_0_to_fp16 = const()[name = tensor<string, []>("input_47_gamma_0_to_fp16"), val = tensor<fp16, [384]>(BLOBFILE(path = tensor<string, []>("@model_path/weights/weight.bin"), offset = tensor<uint64, []>(13339584)))];
            tensor<fp16, [384]> input_47_beta_0_to_fp16 = const()[name = tensor<string, []>("input_47_beta_0_to_fp16"), val = tensor<fp16, [384]>(BLOBFILE(path = tensor<string, []>("@model_path/weights/weight.bin"), offset = tensor<uint64, []>(13340416)))];
            tensor<fp16, []> var_998_to_fp16 = const()[name = tensor<string, []>("op_998_to_fp16"), val = tensor<fp16, []>(0x1.1p-20)];
            tensor<fp16, [1, 384, 1, 1037]> input_47_cast_fp16 = layer_norm(axes = input_47_axes_0, beta = input_47_beta_0_to_fp16, epsilon = var_998_to_fp16, gamma = input_47_gamma_0_to_fp16, x = inputs_15_cast_fp16)[name = tensor<string, []>("input_47_cast_fp16")];
            tensor<int32, [2]> var_1012 = const()[name = tensor<string, []>("op_1012"), val = tensor<int32, [2]>([1, 1])];
            tensor<int32, [2]> var_1014 = const()[name = tensor<string, []>("op_1014"), val = tensor<int32, [2]>([1, 1])];
            tensor<string, []> input_49_pad_type_0 = const()[name = tensor<string, []>("input_49_pad_type_0"), val = tensor<string, []>("custom")];
            tensor<int32, [4]> input_49_pad_0 = const()[name = tensor<string, []>("input_49_pad_0"), val = tensor<int32, [4]>([0, 0, 0, 0])];
            tensor<fp16, [1536, 384, 1, 1]> model_backbone_encoder_layer_3_mlp_fc1_weight_to_fp16 = const()[name = tensor<string, []>("model_backbone_encoder_layer_3_mlp_fc1_weight_to_fp16"), val = tensor<fp16, [1536, 384, 1, 1]>(BLOBFILE(path = tensor<string, []>("@model_path/weights/weight.bin"), offset = tensor<uint64, []>(13341248)))];
            tensor<fp16, [1536]> model_backbone_encoder_layer_3_mlp_fc1_bias_to_fp16 = const()[name = tensor<string, []>("model_backbone_encoder_layer_3_mlp_fc1_bias_to_fp16"), val = tensor<fp16, [1536]>(BLOBFILE(path = tensor<string, []>("@model_path/weights/weight.bin"), offset = tensor<uint64, []>(14520960)))];
            tensor<fp16, [1, 1536, 1, 1037]> input_49_cast_fp16 = conv(bias = model_backbone_encoder_layer_3_mlp_fc1_bias_to_fp16, dilations = var_1014, groups = var_44, pad = input_49_pad_0, pad_type = input_49_pad_type_0, strides = var_1012, weight = model_backbone_encoder_layer_3_mlp_fc1_weight_to_fp16, x = input_47_cast_fp16)[name = tensor<string, []>("input_49_cast_fp16")];
            tensor<string, []> input_51_mode_0 = const()[name = tensor<string, []>("input_51_mode_0"), val = tensor<string, []>("EXACT")];
            tensor<fp16, [1, 1536, 1, 1037]> input_51_cast_fp16 = gelu(mode = input_51_mode_0, x = input_49_cast_fp16)[name = tensor<string, []>("input_51_cast_fp16")];
            tensor<int32, [2]> var_1020 = const()[name = tensor<string, []>("op_1020"), val = tensor<int32, [2]>([1, 1])];
            tensor<int32, [2]> var_1022 = const()[name = tensor<string, []>("op_1022"), val = tensor<int32, [2]>([1, 1])];
            tensor<string, []> hidden_state_15_pad_type_0 = const()[name = tensor<string, []>("hidden_state_15_pad_type_0"), val = tensor<string, []>("custom")];
            tensor<int32, [4]> hidden_state_15_pad_0 = const()[name = tensor<string, []>("hidden_state_15_pad_0"), val = tensor<int32, [4]>([0, 0, 0, 0])];
            tensor<fp16, [384, 1536, 1, 1]> layer_output_7_weight_0_to_fp16 = const()[name = tensor<string, []>("layer_output_7_weight_0_to_fp16"), val = tensor<fp16, [384, 1536, 1, 1]>(BLOBFILE(path = tensor<string, []>("@model_path/weights/weight.bin"), offset = tensor<uint64, []>(14524096)))];
            tensor<fp16, [384]> layer_output_7_bias_0_to_fp16 = const()[name = tensor<string, []>("layer_output_7_bias_0_to_fp16"), val = tensor<fp16, [384]>(BLOBFILE(path = tensor<string, []>("@model_path/weights/weight.bin"), offset = tensor<uint64, []>(15703808)))];
            tensor<fp16, [1, 384, 1, 1037]> layer_output_7_cast_fp16 = conv(bias = layer_output_7_bias_0_to_fp16, dilations = var_1022, groups = var_44, pad = hidden_state_15_pad_0, pad_type = hidden_state_15_pad_type_0, strides = var_1020, weight = layer_output_7_weight_0_to_fp16, x = input_51_cast_fp16)[name = tensor<string, []>("layer_output_7_cast_fp16")];
            tensor<fp16, [1, 384, 1, 1037]> inputs_17_cast_fp16 = add(x = layer_output_7_cast_fp16, y = inputs_15_cast_fp16)[name = tensor<string, []>("inputs_17_cast_fp16")];
            tensor<int32, [1]> input_53_axes_0 = const()[name = tensor<string, []>("input_53_axes_0"), val = tensor<int32, [1]>([1])];
            tensor<fp16, [384]> input_53_gamma_0_to_fp16 = const()[name = tensor<string, []>("input_53_gamma_0_to_fp16"), val = tensor<fp16, [384]>(BLOBFILE(path = tensor<string, []>("@model_path/weights/weight.bin"), offset = tensor<uint64, []>(15704640)))];
            tensor<fp16, [384]> input_53_beta_0_to_fp16 = const()[name = tensor<string, []>("input_53_beta_0_to_fp16"), val = tensor<fp16, [384]>(BLOBFILE(path = tensor<string, []>("@model_path/weights/weight.bin"), offset = tensor<uint64, []>(15705472)))];
            tensor<fp16, []> var_1045_to_fp16 = const()[name = tensor<string, []>("op_1045_to_fp16"), val = tensor<fp16, []>(0x1.1p-20)];
            tensor<fp16, [1, 384, 1, 1037]> input_53_cast_fp16 = layer_norm(axes = input_53_axes_0, beta = input_53_beta_0_to_fp16, epsilon = var_1045_to_fp16, gamma = input_53_gamma_0_to_fp16, x = inputs_17_cast_fp16)[name = tensor<string, []>("input_53_cast_fp16")];
            tensor<int32, [2]> var_1062 = const()[name = tensor<string, []>("op_1062"), val = tensor<int32, [2]>([1, 1])];
            tensor<int32, [2]> var_1064 = const()[name = tensor<string, []>("op_1064"), val = tensor<int32, [2]>([1, 1])];
            tensor<string, []> k_17_pad_type_0 = const()[name = tensor<string, []>("k_17_pad_type_0"), val = tensor<string, []>("custom")];
            tensor<int32, [4]> k_17_pad_0 = const()[name = tensor<string, []>("k_17_pad_0"), val = tensor<int32, [4]>([0, 0, 0, 0])];
            tensor<fp16, [384, 384, 1, 1]> model_backbone_encoder_layer_4_attention_attention_key_weight_to_fp16 = const()[name = tensor<string, []>("model_backbone_encoder_layer_4_attention_attention_key_weight_to_fp16"), val = tensor<fp16, [384, 384, 1, 1]>(BLOBFILE(path = tensor<string, []>("@model_path/weights/weight.bin"), offset = tensor<uint64, []>(15706304)))];
            tensor<fp16, [384]> model_backbone_encoder_layer_4_attention_attention_key_bias_to_fp16 = const()[name = tensor<string, []>("model_backbone_encoder_layer_4_attention_attention_key_bias_to_fp16"), val = tensor<fp16, [384]>(BLOBFILE(path = tensor<string, []>("@model_path/weights/weight.bin"), offset = tensor<uint64, []>(16001280)))];
            tensor<fp16, [1, 384, 1, 1037]> k_17_cast_fp16 = conv(bias = model_backbone_encoder_layer_4_attention_attention_key_bias_to_fp16, dilations = var_1064, groups = var_44, pad = k_17_pad_0, pad_type = k_17_pad_type_0, strides = var_1062, weight = model_backbone_encoder_layer_4_attention_attention_key_weight_to_fp16, x = input_53_cast_fp16)[name = tensor<string, []>("k_17_cast_fp16")];
            tensor<int32, [2]> var_1069 = const()[name = tensor<string, []>("op_1069"), val = tensor<int32, [2]>([1, 1])];
            tensor<int32, [2]> var_1071 = const()[name = tensor<string, []>("op_1071"), val = tensor<int32, [2]>([1, 1])];
            tensor<string, []> v_9_pad_type_0 = const()[name = tensor<string, []>("v_9_pad_type_0"), val = tensor<string, []>("custom")];
            tensor<int32, [4]> v_9_pad_0 = const()[name = tensor<string, []>("v_9_pad_0"), val = tensor<int32, [4]>([0, 0, 0, 0])];
            tensor<fp16, [384, 384, 1, 1]> model_backbone_encoder_layer_4_attention_attention_value_weight_to_fp16 = const()[name = tensor<string, []>("model_backbone_encoder_layer_4_attention_attention_value_weight_to_fp16"), val = tensor<fp16, [384, 384, 1, 1]>(BLOBFILE(path = tensor<string, []>("@model_path/weights/weight.bin"), offset = tensor<uint64, []>(16002112)))];
            tensor<fp16, [384]> model_backbone_encoder_layer_4_attention_attention_value_bias_to_fp16 = const()[name = tensor<string, []>("model_backbone_encoder_layer_4_attention_attention_value_bias_to_fp16"), val = tensor<fp16, [384]>(BLOBFILE(path = tensor<string, []>("@model_path/weights/weight.bin"), offset = tensor<uint64, []>(16297088)))];
            tensor<fp16, [1, 384, 1, 1037]> v_9_cast_fp16 = conv(bias = model_backbone_encoder_layer_4_attention_attention_value_bias_to_fp16, dilations = var_1071, groups = var_44, pad = v_9_pad_0, pad_type = v_9_pad_type_0, strides = var_1069, weight = model_backbone_encoder_layer_4_attention_attention_value_weight_to_fp16, x = input_53_cast_fp16)[name = tensor<string, []>("v_9_cast_fp16")];
            tensor<int32, [2]> var_1076 = const()[name = tensor<string, []>("op_1076"), val = tensor<int32, [2]>([1, 1])];
            tensor<int32, [2]> var_1078 = const()[name = tensor<string, []>("op_1078"), val = tensor<int32, [2]>([1, 1])];
            tensor<string, []> q_9_pad_type_0 = const()[name = tensor<string, []>("q_9_pad_type_0"), val = tensor<string, []>("custom")];
            tensor<int32, [4]> q_9_pad_0 = const()[name = tensor<string, []>("q_9_pad_0"), val = tensor<int32, [4]>([0, 0, 0, 0])];
            tensor<fp16, [384, 384, 1, 1]> model_backbone_encoder_layer_4_attention_attention_query_weight_to_fp16 = const()[name = tensor<string, []>("model_backbone_encoder_layer_4_attention_attention_query_weight_to_fp16"), val = tensor<fp16, [384, 384, 1, 1]>(BLOBFILE(path = tensor<string, []>("@model_path/weights/weight.bin"), offset = tensor<uint64, []>(16297920)))];
            tensor<fp16, [384]> model_backbone_encoder_layer_4_attention_attention_query_bias_to_fp16 = const()[name = tensor<string, []>("model_backbone_encoder_layer_4_attention_attention_query_bias_to_fp16"), val = tensor<fp16, [384]>(BLOBFILE(path = tensor<string, []>("@model_path/weights/weight.bin"), offset = tensor<uint64, []>(16592896)))];
            tensor<fp16, [1, 384, 1, 1037]> q_9_cast_fp16 = conv(bias = model_backbone_encoder_layer_4_attention_attention_query_bias_to_fp16, dilations = var_1078, groups = var_44, pad = q_9_pad_0, pad_type = q_9_pad_type_0, strides = var_1076, weight = model_backbone_encoder_layer_4_attention_attention_query_weight_to_fp16, x = input_53_cast_fp16)[name = tensor<string, []>("q_9_cast_fp16")];
            tensor<int32, [4]> var_1082_begin_0 = const()[name = tensor<string, []>("op_1082_begin_0"), val = tensor<int32, [4]>([0, 0, 0, 0])];
            tensor<int32, [4]> var_1082_end_0 = const()[name = tensor<string, []>("op_1082_end_0"), val = tensor<int32, [4]>([1, 64, 1, 1037])];
            tensor<bool, [4]> var_1082_end_mask_0 = const()[name = tensor<string, []>("op_1082_end_mask_0"), val = tensor<bool, [4]>([true, false, true, true])];
            tensor<fp16, [1, 64, 1, 1037]> var_1082_cast_fp16 = slice_by_index(begin = var_1082_begin_0, end = var_1082_end_0, end_mask = var_1082_end_mask_0, x = q_9_cast_fp16)[name = tensor<string, []>("op_1082_cast_fp16")];
            tensor<int32, [4]> var_1086_begin_0 = const()[name = tensor<string, []>("op_1086_begin_0"), val = tensor<int32, [4]>([0, 64, 0, 0])];
            tensor<int32, [4]> var_1086_end_0 = const()[name = tensor<string, []>("op_1086_end_0"), val = tensor<int32, [4]>([1, 128, 1, 1037])];
            tensor<bool, [4]> var_1086_end_mask_0 = const()[name = tensor<string, []>("op_1086_end_mask_0"), val = tensor<bool, [4]>([true, false, true, true])];
            tensor<fp16, [1, 64, 1, 1037]> var_1086_cast_fp16 = slice_by_index(begin = var_1086_begin_0, end = var_1086_end_0, end_mask = var_1086_end_mask_0, x = q_9_cast_fp16)[name = tensor<string, []>("op_1086_cast_fp16")];
            tensor<int32, [4]> var_1090_begin_0 = const()[name = tensor<string, []>("op_1090_begin_0"), val = tensor<int32, [4]>([0, 128, 0, 0])];
            tensor<int32, [4]> var_1090_end_0 = const()[name = tensor<string, []>("op_1090_end_0"), val = tensor<int32, [4]>([1, 192, 1, 1037])];
            tensor<bool, [4]> var_1090_end_mask_0 = const()[name = tensor<string, []>("op_1090_end_mask_0"), val = tensor<bool, [4]>([true, false, true, true])];
            tensor<fp16, [1, 64, 1, 1037]> var_1090_cast_fp16 = slice_by_index(begin = var_1090_begin_0, end = var_1090_end_0, end_mask = var_1090_end_mask_0, x = q_9_cast_fp16)[name = tensor<string, []>("op_1090_cast_fp16")];
            tensor<int32, [4]> var_1094_begin_0 = const()[name = tensor<string, []>("op_1094_begin_0"), val = tensor<int32, [4]>([0, 192, 0, 0])];
            tensor<int32, [4]> var_1094_end_0 = const()[name = tensor<string, []>("op_1094_end_0"), val = tensor<int32, [4]>([1, 256, 1, 1037])];
            tensor<bool, [4]> var_1094_end_mask_0 = const()[name = tensor<string, []>("op_1094_end_mask_0"), val = tensor<bool, [4]>([true, false, true, true])];
            tensor<fp16, [1, 64, 1, 1037]> var_1094_cast_fp16 = slice_by_index(begin = var_1094_begin_0, end = var_1094_end_0, end_mask = var_1094_end_mask_0, x = q_9_cast_fp16)[name = tensor<string, []>("op_1094_cast_fp16")];
            tensor<int32, [4]> var_1098_begin_0 = const()[name = tensor<string, []>("op_1098_begin_0"), val = tensor<int32, [4]>([0, 256, 0, 0])];
            tensor<int32, [4]> var_1098_end_0 = const()[name = tensor<string, []>("op_1098_end_0"), val = tensor<int32, [4]>([1, 320, 1, 1037])];
            tensor<bool, [4]> var_1098_end_mask_0 = const()[name = tensor<string, []>("op_1098_end_mask_0"), val = tensor<bool, [4]>([true, false, true, true])];
            tensor<fp16, [1, 64, 1, 1037]> var_1098_cast_fp16 = slice_by_index(begin = var_1098_begin_0, end = var_1098_end_0, end_mask = var_1098_end_mask_0, x = q_9_cast_fp16)[name = tensor<string, []>("op_1098_cast_fp16")];
            tensor<int32, [4]> var_1102_begin_0 = const()[name = tensor<string, []>("op_1102_begin_0"), val = tensor<int32, [4]>([0, 320, 0, 0])];
            tensor<int32, [4]> var_1102_end_0 = const()[name = tensor<string, []>("op_1102_end_0"), val = tensor<int32, [4]>([1, 384, 1, 1037])];
            tensor<bool, [4]> var_1102_end_mask_0 = const()[name = tensor<string, []>("op_1102_end_mask_0"), val = tensor<bool, [4]>([true, false, true, true])];
            tensor<fp16, [1, 64, 1, 1037]> var_1102_cast_fp16 = slice_by_index(begin = var_1102_begin_0, end = var_1102_end_0, end_mask = var_1102_end_mask_0, x = q_9_cast_fp16)[name = tensor<string, []>("op_1102_cast_fp16")];
            tensor<int32, [4]> k_19_perm_0 = const()[name = tensor<string, []>("k_19_perm_0"), val = tensor<int32, [4]>([0, 3, 2, 1])];
            tensor<int32, [4]> var_1109_begin_0 = const()[name = tensor<string, []>("op_1109_begin_0"), val = tensor<int32, [4]>([0, 0, 0, 0])];
            tensor<int32, [4]> var_1109_end_0 = const()[name = tensor<string, []>("op_1109_end_0"), val = tensor<int32, [4]>([1, 1037, 1, 64])];
            tensor<bool, [4]> var_1109_end_mask_0 = const()[name = tensor<string, []>("op_1109_end_mask_0"), val = tensor<bool, [4]>([true, true, true, false])];
            tensor<fp16, [1, 1037, 1, 384]> transpose_15 = transpose(perm = k_19_perm_0, x = k_17_cast_fp16)[name = tensor<string, []>("transpose_15")];
            tensor<fp16, [1, 1037, 1, 64]> var_1109_cast_fp16 = slice_by_index(begin = var_1109_begin_0, end = var_1109_end_0, end_mask = var_1109_end_mask_0, x = transpose_15)[name = tensor<string, []>("op_1109_cast_fp16")];
            tensor<int32, [4]> var_1113_begin_0 = const()[name = tensor<string, []>("op_1113_begin_0"), val = tensor<int32, [4]>([0, 0, 0, 64])];
            tensor<int32, [4]> var_1113_end_0 = const()[name = tensor<string, []>("op_1113_end_0"), val = tensor<int32, [4]>([1, 1037, 1, 128])];
            tensor<bool, [4]> var_1113_end_mask_0 = const()[name = tensor<string, []>("op_1113_end_mask_0"), val = tensor<bool, [4]>([true, true, true, false])];
            tensor<fp16, [1, 1037, 1, 64]> var_1113_cast_fp16 = slice_by_index(begin = var_1113_begin_0, end = var_1113_end_0, end_mask = var_1113_end_mask_0, x = transpose_15)[name = tensor<string, []>("op_1113_cast_fp16")];
            tensor<int32, [4]> var_1117_begin_0 = const()[name = tensor<string, []>("op_1117_begin_0"), val = tensor<int32, [4]>([0, 0, 0, 128])];
            tensor<int32, [4]> var_1117_end_0 = const()[name = tensor<string, []>("op_1117_end_0"), val = tensor<int32, [4]>([1, 1037, 1, 192])];
            tensor<bool, [4]> var_1117_end_mask_0 = const()[name = tensor<string, []>("op_1117_end_mask_0"), val = tensor<bool, [4]>([true, true, true, false])];
            tensor<fp16, [1, 1037, 1, 64]> var_1117_cast_fp16 = slice_by_index(begin = var_1117_begin_0, end = var_1117_end_0, end_mask = var_1117_end_mask_0, x = transpose_15)[name = tensor<string, []>("op_1117_cast_fp16")];
            tensor<int32, [4]> var_1121_begin_0 = const()[name = tensor<string, []>("op_1121_begin_0"), val = tensor<int32, [4]>([0, 0, 0, 192])];
            tensor<int32, [4]> var_1121_end_0 = const()[name = tensor<string, []>("op_1121_end_0"), val = tensor<int32, [4]>([1, 1037, 1, 256])];
            tensor<bool, [4]> var_1121_end_mask_0 = const()[name = tensor<string, []>("op_1121_end_mask_0"), val = tensor<bool, [4]>([true, true, true, false])];
            tensor<fp16, [1, 1037, 1, 64]> var_1121_cast_fp16 = slice_by_index(begin = var_1121_begin_0, end = var_1121_end_0, end_mask = var_1121_end_mask_0, x = transpose_15)[name = tensor<string, []>("op_1121_cast_fp16")];
            tensor<int32, [4]> var_1125_begin_0 = const()[name = tensor<string, []>("op_1125_begin_0"), val = tensor<int32, [4]>([0, 0, 0, 256])];
            tensor<int32, [4]> var_1125_end_0 = const()[name = tensor<string, []>("op_1125_end_0"), val = tensor<int32, [4]>([1, 1037, 1, 320])];
            tensor<bool, [4]> var_1125_end_mask_0 = const()[name = tensor<string, []>("op_1125_end_mask_0"), val = tensor<bool, [4]>([true, true, true, false])];
            tensor<fp16, [1, 1037, 1, 64]> var_1125_cast_fp16 = slice_by_index(begin = var_1125_begin_0, end = var_1125_end_0, end_mask = var_1125_end_mask_0, x = transpose_15)[name = tensor<string, []>("op_1125_cast_fp16")];
            tensor<int32, [4]> var_1129_begin_0 = const()[name = tensor<string, []>("op_1129_begin_0"), val = tensor<int32, [4]>([0, 0, 0, 320])];
            tensor<int32, [4]> var_1129_end_0 = const()[name = tensor<string, []>("op_1129_end_0"), val = tensor<int32, [4]>([1, 1037, 1, 384])];
            tensor<bool, [4]> var_1129_end_mask_0 = const()[name = tensor<string, []>("op_1129_end_mask_0"), val = tensor<bool, [4]>([true, true, true, false])];
            tensor<fp16, [1, 1037, 1, 64]> var_1129_cast_fp16 = slice_by_index(begin = var_1129_begin_0, end = var_1129_end_0, end_mask = var_1129_end_mask_0, x = transpose_15)[name = tensor<string, []>("op_1129_cast_fp16")];
            tensor<int32, [4]> var_1131_begin_0 = const()[name = tensor<string, []>("op_1131_begin_0"), val = tensor<int32, [4]>([0, 0, 0, 0])];
            tensor<int32, [4]> var_1131_end_0 = const()[name = tensor<string, []>("op_1131_end_0"), val = tensor<int32, [4]>([1, 64, 1, 1037])];
            tensor<bool, [4]> var_1131_end_mask_0 = const()[name = tensor<string, []>("op_1131_end_mask_0"), val = tensor<bool, [4]>([true, false, true, true])];
            tensor<fp16, [1, 64, 1, 1037]> var_1131_cast_fp16 = slice_by_index(begin = var_1131_begin_0, end = var_1131_end_0, end_mask = var_1131_end_mask_0, x = v_9_cast_fp16)[name = tensor<string, []>("op_1131_cast_fp16")];
…
            tensor<int32, [4]> input_177_pad_0 = const()[name = tensor<string, []>("input_177_pad_0"), val = tensor<int32, [4]>([1, 1, 1, 1])];
            tensor<fp16, [384, 384, 3, 3]> model_neck_reassemble_stage_layers_3_resize_weight_to_fp16 = const()[name = tensor<string, []>("model_neck_reassemble_stage_layers_3_resize_weight_to_fp16"), val = tensor<fp16, [384, 384, 3, 3]>(BLOBFILE(path = tensor<string, []>("@model_path/weights/weight.bin"), offset = tensor<uint64, []>(44808896)))];
            tensor<fp16, [384]> model_neck_reassemble_stage_layers_3_resize_bias_to_fp16 = const()[name = tensor<string, []>("model_neck_reassemble_stage_layers_3_resize_bias_to_fp16"), val = tensor<fp16, [384]>(BLOBFILE(path = tensor<string, []>("@model_path/weights/weight.bin"), offset = tensor<uint64, []>(47463168)))];
            tensor<fp16, [1, 384, 14, 19]> input_177_cast_fp16 = conv(bias = model_neck_reassemble_stage_layers_3_resize_bias_to_fp16, dilations = var_2975, groups = var_44, pad = input_177_pad_0, pad_type = input_177_pad_type_0, strides = var_2973, weight = model_neck_reassemble_stage_layers_3_resize_weight_to_fp16, x = input_169_cast_fp16)[name = tensor<string, []>("input_177_cast_fp16")];
            tensor<int32, [2]> var_2984 = const()[name = tensor<string, []>("op_2984"), val = tensor<int32, [2]>([1, 1])];
            tensor<int32, [2]> var_2986 = const()[name = tensor<string, []>("op_2986"), val = tensor<int32, [2]>([1, 1])];
            tensor<string, []> residual_pad_type_0 = const()[name = tensor<string, []>("residual_pad_type_0"), val = tensor<string, []>("custom")];
            tensor<int32, [4]> residual_pad_0 = const()[name = tensor<string, []>("residual_pad_0"), val = tensor<int32, [4]>([1, 1, 1, 1])];
            tensor<fp16, [64, 48, 3, 3]> model_neck_convs_0_weight_to_fp16 = const()[name = tensor<string, []>("model_neck_convs_0_weight_to_fp16"), val = tensor<fp16, [64, 48, 3, 3]>(BLOBFILE(path = tensor<string, []>("@model_path/weights/weight.bin"), offset = tensor<uint64, []>(47464000)))];
            tensor<fp16, [1, 64, 112, 148]> residual_cast_fp16 = conv(dilations = var_2986, groups = var_44, pad = residual_pad_0, pad_type = residual_pad_type_0, strides = var_2984, weight = model_neck_convs_0_weight_to_fp16, x = input_171_has_output_shape_cast_fp16)[name = tensor<string, []>("residual_cast_fp16")];
            tensor<int32, [2]> var_2990 = const()[name = tensor<string, []>("op_2990"), val = tensor<int32, [2]>([1, 1])];
            tensor<int32, [2]> var_2992 = const()[name = tensor<string, []>("op_2992"), val = tensor<int32, [2]>([1, 1])];
            tensor<string, []> residual_3_pad_type_0 = const()[name = tensor<string, []>("residual_3_pad_type_0"), val = tensor<string, []>("custom")];
            tensor<int32, [4]> residual_3_pad_0 = const()[name = tensor<string, []>("residual_3_pad_0"), val = tensor<int32, [4]>([1, 1, 1, 1])];
            tensor<fp16, [64, 96, 3, 3]> model_neck_convs_1_weight_to_fp16 = const()[name = tensor<string, []>("model_neck_convs_1_weight_to_fp16"), val = tensor<fp16, [64, 96, 3, 3]>(BLOBFILE(path = tensor<string, []>("@model_path/weights/weight.bin"), offset = tensor<uint64, []>(47519360)))];
            tensor<fp16, [1, 64, 56, 74]> residual_3_cast_fp16 = conv(dilations = var_2992, groups = var_44, pad = residual_3_pad_0, pad_type = residual_3_pad_type_0, strides = var_2990, weight = model_neck_convs_1_weight_to_fp16, x = input_173_has_output_shape_cast_fp16)[name = tensor<string, []>("residual_3_cast_fp16")];
            tensor<int32, [2]> var_2996 = const()[name = tensor<string, []>("op_2996"), val = tensor<int32, [2]>([1, 1])];
            tensor<int32, [2]> var_2998 = const()[name = tensor<string, []>("op_2998"), val = tensor<int32, [2]>([1, 1])];
            tensor<string, []> residual_1_pad_type_0 = const()[name = tensor<string, []>("residual_1_pad_type_0"), val = tensor<string, []>("custom")];
            tensor<int32, [4]> residual_1_pad_0 = const()[name = tensor<string, []>("residual_1_pad_0"), val = tensor<int32, [4]>([1, 1, 1, 1])];
            tensor<fp16, [64, 192, 3, 3]> model_neck_convs_2_weight_to_fp16 = const()[name = tensor<string, []>("model_neck_convs_2_weight_to_fp16"), val = tensor<fp16, [64, 192, 3, 3]>(BLOBFILE(path = tensor<string, []>("@model_path/weights/weight.bin"), offset = tensor<uint64, []>(47630016)))];
            tensor<fp16, [1, 64, 28, 37]> residual_1_cast_fp16 = conv(dilations = var_2998, groups = var_44, pad = residual_1_pad_0, pad_type = residual_1_pad_type_0, strides = var_2996, weight = model_neck_convs_2_weight_to_fp16, x = input_175_cast_fp16)[name = tensor<string, []>("residual_1_cast_fp16")];
            tensor<int32, [2]> var_3002 = const()[name = tensor<string, []>("op_3002"), val = tensor<int32, [2]>([1, 1])];
            tensor<int32, [2]> var_3004 = const()[name = tensor<string, []>("op_3004"), val = tensor<int32, [2]>([1, 1])];
            tensor<string, []> input_179_pad_type_0 = const()[name = tensor<string, []>("input_179_pad_type_0"), val = tensor<string, []>("custom")];
            tensor<int32, [4]> input_179_pad_0 = const()[name = tensor<string, []>("input_179_pad_0"), val = tensor<int32, [4]>([1, 1, 1, 1])];
            tensor<fp16, [64, 384, 3, 3]> model_neck_convs_3_weight_to_fp16 = const()[name = tensor<string, []>("model_neck_convs_3_weight_to_fp16"), val = tensor<fp16, [64, 384, 3, 3]>(BLOBFILE(path = tensor<string, []>("@model_path/weights/weight.bin"), offset = tensor<uint64, []>(47851264)))];
            tensor<fp16, [1, 64, 14, 19]> input_179_cast_fp16 = conv(dilations = var_3004, groups = var_44, pad = input_179_pad_0, pad_type = input_179_pad_type_0, strides = var_3002, weight = model_neck_convs_3_weight_to_fp16, x = input_177_cast_fp16)[name = tensor<string, []>("input_179_cast_fp16")];
            tensor<fp16, [1, 64, 14, 19]> input_181_cast_fp16 = relu(x = input_179_cast_fp16)[name = tensor<string, []>("input_181_cast_fp16")];
            tensor<int32, [2]> var_3024 = const()[name = tensor<string, []>("op_3024"), val = tensor<int32, [2]>([1, 1])];
            tensor<int32, [2]> var_3026 = const()[name = tensor<string, []>("op_3026"), val = tensor<int32, [2]>([1, 1])];
            tensor<string, []> input_183_pad_type_0 = const()[name = tensor<string, []>("input_183_pad_type_0"), val = tensor<string, []>("custom")];
            tensor<int32, [4]> input_183_pad_0 = const()[name = tensor<string, []>("input_183_pad_0"), val = tensor<int32, [4]>([1, 1, 1, 1])];
            tensor<fp16, [64, 64, 3, 3]> model_neck_fusion_stage_layers_0_residual_layer2_convolution1_weight_to_fp16 = const()[name = tensor<string, []>("model_neck_fusion_stage_layers_0_residual_layer2_convolution1_weight_to_fp16"), val = tensor<fp16, [64, 64, 3, 3]>(BLOBFILE(path = tensor<string, []>("@model_path/weights/weight.bin"), offset = tensor<uint64, []>(48293696)))];
            tensor<fp16, [64]> model_neck_fusion_stage_layers_0_residual_layer2_convolution1_bias_to_fp16 = const()[name = tensor<string, []>("model_neck_fusion_stage_layers_0_residual_layer2_convolution1_bias_to_fp16"), val = tensor<fp16, [64]>(BLOBFILE(path = tensor<string, []>("@model_path/weights/weight.bin"), offset = tensor<uint64, []>(48367488)))];
            tensor<fp16, [1, 64, 14, 19]> input_183_cast_fp16 = conv(bias = model_neck_fusion_stage_layers_0_residual_layer2_convolution1_bias_to_fp16, dilations = var_3026, groups = var_44, pad = input_183_pad_0, pad_type = input_183_pad_type_0, strides = var_3024, weight = model_neck_fusion_stage_layers_0_residual_layer2_convolution1_weight_to_fp16, x = input_181_cast_fp16)[name = tensor<string, []>("input_183_cast_fp16")];
            tensor<fp16, [1, 64, 14, 19]> input_185_cast_fp16 = relu(x = input_183_cast_fp16)[name = tensor<string, []>("input_185_cast_fp16")];
            tensor<int32, [2]> var_3032 = const()[name = tensor<string, []>("op_3032"), val = tensor<int32, [2]>([1, 1])];
            tensor<int32, [2]> var_3034 = const()[name = tensor<string, []>("op_3034"), val = tensor<int32, [2]>([1, 1])];
            tensor<string, []> hidden_state_75_pad_type_0 = const()[name = tensor<string, []>("hidden_state_75_pad_type_0"), val = tensor<string, []>("custom")];
            tensor<int32, [4]> hidden_state_75_pad_0 = const()[name = tensor<string, []>("hidden_state_75_pad_0"), val = tensor<int32, [4]>([1, 1, 1, 1])];
            tensor<fp16, [64, 64, 3, 3]> model_neck_fusion_stage_layers_0_residual_layer2_convolution2_weight_to_fp16 = const()[name = tensor<string, []>("model_neck_fusion_stage_layers_0_residual_layer2_convolution2_weight_to_fp16"), val = tensor<fp16, [64, 64, 3, 3]>(BLOBFILE(path = tensor<string, []>("@model_path/weights/weight.bin"), offset = tensor<uint64, []>(48367680)))];
            tensor<fp16, [64]> model_neck_fusion_stage_layers_0_residual_layer2_convolution2_bias_to_fp16 = const()[name = tensor<string, []>("model_neck_fusion_stage_layers_0_residual_layer2_convolution2_bias_to_fp16"), val = tensor<fp16, [64]>(BLOBFILE(path = tensor<string, []>("@model_path/weights/weight.bin"), offset = tensor<uint64, []>(48441472)))];
            tensor<fp16, [1, 64, 14, 19]> hidden_state_75_cast_fp16 = conv(bias = model_neck_fusion_stage_layers_0_residual_layer2_convolution2_bias_to_fp16, dilations = var_3034, groups = var_44, pad = hidden_state_75_pad_0, pad_type = hidden_state_75_pad_type_0, strides = var_3032, weight = model_neck_fusion_stage_layers_0_residual_layer2_convolution2_weight_to_fp16, x = input_185_cast_fp16)[name = tensor<string, []>("hidden_state_75_cast_fp16")];
            tensor<fp16, [1, 64, 14, 19]> input_187_cast_fp16 = add(x = hidden_state_75_cast_fp16, y = input_179_cast_fp16)[name = tensor<string, []>("input_187_cast_fp16")];
            tensor<fp32, []> input_189_scale_factor_height_0 = const()[name = tensor<string, []>("input_189_scale_factor_height_0"), val = tensor<fp32, []>(0x1p+1)];
            tensor<fp32, []> input_189_scale_factor_width_0 = const()[name = tensor<string, []>("input_189_scale_factor_width_0"), val = tensor<fp32, []>(0x1.f28714p+0)];
            tensor<bool, []> input_189_align_corners_0 = const()[name = tensor<string, []>("input_189_align_corners_0"), val = tensor<bool, []>(true)];
            tensor<fp16, [1, 64, 28, 37]> input_189_cast_fp16 = upsample_bilinear(align_corners = input_189_align_corners_0, scale_factor_height = input_189_scale_factor_height_0, scale_factor_width = input_189_scale_factor_width_0, x = input_187_cast_fp16)[name = tensor<string, []>("input_189_cast_fp16")];
            tensor<int32, [2]> var_3042 = const()[name = tensor<string, []>("op_3042"), val = tensor<int32, [2]>([1, 1])];
            tensor<int32, [2]> var_3044 = const()[name = tensor<string, []>("op_3044"), val = tensor<int32, [2]>([1, 1])];
            tensor<string, []> hidden_state_77_pad_type_0 = const()[name = tensor<string, []>("hidden_state_77_pad_type_0"), val = tensor<string, []>("custom")];
            tensor<int32, [4]> hidden_state_77_pad_0 = const()[name = tensor<string, []>("hidden_state_77_pad_0"), val = tensor<int32, [4]>([0, 0, 0, 0])];
            tensor<fp16, [64, 64, 1, 1]> model_neck_fusion_stage_layers_0_projection_weight_to_fp16 = const()[name = tensor<string, []>("model_neck_fusion_stage_layers_0_projection_weight_to_fp16"), val = tensor<fp16, [64, 64, 1, 1]>(BLOBFILE(path = tensor<string, []>("@model_path/weights/weight.bin"), offset = tensor<uint64, []>(48441664)))];
            tensor<fp16, [64]> model_neck_fusion_stage_layers_0_projection_bias_to_fp16 = const()[name = tensor<string, []>("model_neck_fusion_stage_layers_0_projection_bias_to_fp16"), val = tensor<fp16, [64]>(BLOBFILE(path = tensor<string, []>("@model_path/weights/weight.bin"), offset = tensor<uint64, []>(48449920)))];
            tensor<fp16, [1, 64, 28, 37]> hidden_state_77_cast_fp16 = conv(bias = model_neck_fusion_stage_layers_0_projection_bias_to_fp16, dilations = var_3044, groups = var_44, pad = hidden_state_77_pad_0, pad_type = hidden_state_77_pad_type_0, strides = var_3042, weight = model_neck_fusion_stage_layers_0_projection_weight_to_fp16, x = input_189_cast_fp16)[name = tensor<string, []>("hidden_state_77_cast_fp16")];
            tensor<fp16, [1, 64, 28, 37]> input_191_cast_fp16 = relu(x = residual_1_cast_fp16)[name = tensor<string, []>("input_191_cast_fp16")];
            tensor<int32, [2]> var_3057 = const()[name = tensor<string, []>("op_3057"), val = tensor<int32, [2]>([1, 1])];
            tensor<int32, [2]> var_3059 = const()[name = tensor<string, []>("op_3059"), val = tensor<int32, [2]>([1, 1])];
            tensor<string, []> input_193_pad_type_0 = const()[name = tensor<string, []>("input_193_pad_type_0"), val = tensor<string, []>("custom")];
            tensor<int32, [4]> input_193_pad_0 = const()[name = tensor<string, []>("input_193_pad_0"), val = tensor<int32, [4]>([1, 1, 1, 1])];
            tensor<fp16, [64, 64, 3, 3]> model_neck_fusion_stage_layers_1_residual_layer1_convolution1_weight_to_fp16 = const()[name = tensor<string, []>("model_neck_fusion_stage_layers_1_residual_layer1_convolution1_weight_to_fp16"), val = tensor<fp16, [64, 64, 3, 3]>(BLOBFILE(path = tensor<string, []>("@model_path/weights/weight.bin"), offset = tensor<uint64, []>(48450112)))];
            tensor<fp16, [64]> model_neck_fusion_stage_layers_1_residual_layer1_convolution1_bias_to_fp16 = const()[name = tensor<string, []>("model_neck_fusion_stage_layers_1_residual_layer1_convolution1_bias_to_fp16"), val = tensor<fp16, [64]>(BLOBFILE(path = tensor<string, []>("@model_path/weights/weight.bin"), offset = tensor<uint64, []>(48523904)))];
            tensor<fp16, [1, 64, 28, 37]> input_193_cast_fp16 = conv(bias = model_neck_fusion_stage_layers_1_residual_layer1_convolution1_bias_to_fp16, dilations = var_3059, groups = var_44, pad = input_193_pad_0, pad_type = input_193_pad_type_0, strides = var_3057, weight = model_neck_fusion_stage_layers_1_residual_layer1_convolution1_weight_to_fp16, x = input_191_cast_fp16)[name = tensor<string, []>("input_193_cast_fp16")];
            tensor<fp16, [1, 64, 28, 37]> input_195_cast_fp16 = relu(x = input_193_cast_fp16)[name = tensor<string, []>("input_195_cast_fp16")];
            tensor<int32, [2]> var_3065 = const()[name = tensor<string, []>("op_3065"), val = tensor<int32, [2]>([1, 1])];
            tensor<int32, [2]> var_3067 = const()[name = tensor<string, []>("op_3067"), val = tensor<int32, [2]>([1, 1])];
            tensor<string, []> hidden_state_79_pad_type_0 = const()[name = tensor<string, []>("hidden_state_79_pad_type_0"), val = tensor<string, []>("custom")];
            tensor<int32, [4]> hidden_state_79_pad_0 = const()[name = tensor<string, []>("hidden_state_79_pad_0"), val = tensor<int32, [4]>([1, 1, 1, 1])];
            tensor<fp16, [64, 64, 3, 3]> model_neck_fusion_stage_layers_1_residual_layer1_convolution2_weight_to_fp16 = const()[name = tensor<string, []>("model_neck_fusion_stage_layers_1_residual_layer1_convolution2_weight_to_fp16"), val = tensor<fp16, [64, 64, 3, 3]>(BLOBFILE(path = tensor<string, []>("@model_path/weights/weight.bin"), offset = tensor<uint64, []>(48524096)))];
            tensor<fp16, [64]> model_neck_fusion_stage_layers_1_residual_layer1_convolution2_bias_to_fp16 = const()[name = tensor<string, []>("model_neck_fusion_stage_layers_1_residual_layer1_convolution2_bias_to_fp16"), val = tensor<fp16, [64]>(BLOBFILE(path = tensor<string, []>("@model_path/weights/weight.bin"), offset = tensor<uint64, []>(48597888)))];
            tensor<fp16, [1, 64, 28, 37]> hidden_state_79_cast_fp16 = conv(bias = model_neck_fusion_stage_layers_1_residual_layer1_convolution2_bias_to_fp16, dilations = var_3067, groups = var_44, pad = hidden_state_79_pad_0, pad_type = hidden_state_79_pad_type_0, strides = var_3065, weight = model_neck_fusion_stage_layers_1_residual_layer1_convolution2_weight_to_fp16, x = input_195_cast_fp16)[name = tensor<string, []>("hidden_state_79_cast_fp16")];
            tensor<fp16, [1, 64, 28, 37]> var_3070_cast_fp16 = add(x = hidden_state_79_cast_fp16, y = residual_1_cast_fp16)[name = tensor<string, []>("op_3070_cast_fp16")];
            tensor<fp16, [1, 64, 28, 37]> input_197_cast_fp16 = add(x = hidden_state_77_cast_fp16, y = var_3070_cast_fp16)[name = tensor<string, []>("input_197_cast_fp16")];
            tensor<fp16, [1, 64, 28, 37]> input_199_cast_fp16 = relu(x = input_197_cast_fp16)[name = tensor<string, []>("input_199_cast_fp16")];
            tensor<int32, [2]> var_3077 = const()[name = tensor<string, []>("op_3077"), val = tensor<int32, [2]>([1, 1])];
            tensor<int32, [2]> var_3079 = const()[name = tensor<string, []>("op_3079"), val = tensor<int32, [2]>([1, 1])];
            tensor<string, []> input_201_pad_type_0 = const()[name = tensor<string, []>("input_201_pad_type_0"), val = tensor<string, []>("custom")];
            tensor<int32, [4]> input_201_pad_0 = const()[name = tensor<string, []>("input_201_pad_0"), val = tensor<int32, [4]>([1, 1, 1, 1])];
            tensor<fp16, [64, 64, 3, 3]> model_neck_fusion_stage_layers_1_residual_layer2_convolution1_weight_to_fp16 = const()[name = tensor<string, []>("model_neck_fusion_stage_layers_1_residual_layer2_convolution1_weight_to_fp16"), val = tensor<fp16, [64, 64, 3, 3]>(BLOBFILE(path = tensor<string, []>("@model_path/weights/weight.bin"), offset = tensor<uint64, []>(48598080)))];
            tensor<fp16, [64]> model_neck_fusion_stage_layers_1_residual_layer2_convolution1_bias_to_fp16 = const()[name = tensor<string, []>("model_neck_fusion_stage_layers_1_residual_layer2_convolution1_bias_to_fp16"), val = tensor<fp16, [64]>(BLOBFILE(path = tensor<string, []>("@model_path/weights/weight.bin"), offset = tensor<uint64, []>(48671872)))];
            tensor<fp16, [1, 64, 28, 37]> input_201_cast_fp16 = conv(bias = model_neck_fusion_stage_layers_1_residual_layer2_convolution1_bias_to_fp16, dilations = var_3079, groups = var_44, pad = input_201_pad_0, pad_type = input_201_pad_type_0, strides = var_3077, weight = model_neck_fusion_stage_layers_1_residual_layer2_convolution1_weight_to_fp16, x = input_199_cast_fp16)[name = tensor<string, []>("input_201_cast_fp16")];
            tensor<fp16, [1, 64, 28, 37]> input_203_cast_fp16 = relu(x = input_201_cast_fp16)[name = tensor<string, []>("input_203_cast_fp16")];
            tensor<int32, [2]> var_3085 = const()[name = tensor<string, []>("op_3085"), val = tensor<int32, [2]>([1, 1])];
            tensor<int32, [2]> var_3087 = const()[name = tensor<string, []>("op_3087"), val = tensor<int32, [2]>([1, 1])];
            tensor<string, []> hidden_state_81_pad_type_0 = const()[name = tensor<string, []>("hidden_state_81_pad_type_0"), val = tensor<string, []>("custom")];
            tensor<int32, [4]> hidden_state_81_pad_0 = const()[name = tensor<string, []>("hidden_state_81_pad_0"), val = tensor<int32, [4]>([1, 1, 1, 1])];
            tensor<fp16, [64, 64, 3, 3]> model_neck_fusion_stage_layers_1_residual_layer2_convolution2_weight_to_fp16 = const()[name = tensor<string, []>("model_neck_fusion_stage_layers_1_residual_layer2_convolution2_weight_to_fp16"), val = tensor<fp16, [64, 64, 3, 3]>(BLOBFILE(path = tensor<string, []>("@model_path/weights/weight.bin"), offset = tensor<uint64, []>(48672064)))];
            tensor<fp16, [64]> model_neck_fusion_stage_layers_1_residual_layer2_convolution2_bias_to_fp16 = const()[name = tensor<string, []>("model_neck_fusion_stage_layers_1_residual_layer2_convolution2_bias_to_fp16"), val = tensor<fp16, [64]>(BLOBFILE(path = tensor<string, []>("@model_path/weights/weight.bin"), offset = tensor<uint64, []>(48745856)))];
            tensor<fp16, [1, 64, 28, 37]> hidden_state_81_cast_fp16 = conv(bias = model_neck_fusion_stage_layers_1_residual_layer2_convolution2_bias_to_fp16, dilations = var_3087, groups = var_44, pad = hidden_state_81_pad_0, pad_type = hidden_state_81_pad_type_0, strides = var_3085, weight = model_neck_fusion_stage_layers_1_residual_layer2_convolution2_weight_to_fp16, x = input_203_cast_fp16)[name = tensor<string, []>("hidden_state_81_cast_fp16")];
            tensor<fp16, [1, 64, 28, 37]> input_205_cast_fp16 = add(x = hidden_state_81_cast_fp16, y = input_197_cast_fp16)[name = tensor<string, []>("input_205_cast_fp16")];
            tensor<fp32, []> input_207_scale_factor_height_0 = const()[name = tensor<string, []>("input_207_scale_factor_height_0"), val = tensor<fp32, []>(0x1p+1)];
            tensor<fp32, []> input_207_scale_factor_width_0 = const()[name = tensor<string, []>("input_207_scale_factor_width_0"), val = tensor<fp32, []>(0x1p+1)];
            tensor<bool, []> input_207_align_corners_0 = const()[name = tensor<string, []>("input_207_align_corners_0"), val = tensor<bool, []>(true)];
            tensor<fp16, [1, 64, 56, 74]> input_207_cast_fp16 = upsample_bilinear(align_corners = input_207_align_corners_0, scale_factor_height = input_207_scale_factor_height_0, scale_factor_width = input_207_scale_factor_width_0, x = input_205_cast_fp16)[name = tensor<string, []>("input_207_cast_fp16")];
            tensor<int32, [2]> var_3095 = const()[name = tensor<string, []>("op_3095"), val = tensor<int32, [2]>([1, 1])];
            tensor<int32, [2]> var_3097 = const()[name = tensor<string, []>("op_3097"), val = tensor<int32, [2]>([1, 1])];
            tensor<string, []> hidden_state_83_pad_type_0 = const()[name = tensor<string, []>("hidden_state_83_pad_type_0"), val = tensor<string, []>("custom")];
            tensor<int32, [4]> hidden_state_83_pad_0 = const()[name = tensor<string, []>("hidden_state_83_pad_0"), val = tensor<int32, [4]>([0, 0, 0, 0])];
            tensor<fp16, [64, 64, 1, 1]> model_neck_fusion_stage_layers_1_projection_weight_to_fp16 = const()[name = tensor<string, []>("model_neck_fusion_stage_layers_1_projection_weight_to_fp16"), val = tensor<fp16, [64, 64, 1, 1]>(BLOBFILE(path = tensor<string, []>("@model_path/weights/weight.bin"), offset = tensor<uint64, []>(48746048)))];
            tensor<fp16, [64]> model_neck_fusion_stage_layers_1_projection_bias_to_fp16 = const()[name = tensor<string, []>("model_neck_fusion_stage_layers_1_projection_bias_to_fp16"), val = tensor<fp16, [64]>(BLOBFILE(path = tensor<string, []>("@model_path/weights/weight.bin"), offset = tensor<uint64, []>(48754304)))];
            tensor<fp16, [1, 64, 56, 74]> hidden_state_83_cast_fp16 = conv(bias = model_neck_fusion_stage_layers_1_projection_bias_to_fp16, dilations = var_3097, groups = var_44, pad = hidden_state_83_pad_0, pad_type = hidden_state_83_pad_type_0, strides = var_3095, weight = model_neck_fusion_stage_layers_1_projection_weight_to_fp16, x = input_207_cast_fp16)[name = tensor<string, []>("hidden_state_83_cast_fp16")];
            tensor<fp16, [1, 64, 56, 74]> input_209_cast_fp16 = relu(x = residual_3_cast_fp16)[name = tensor<string, []>("input_209_cast_fp16")];
            tensor<int32, [2]> var_3110 = const()[name = tensor<string, []>("op_3110"), val = tensor<int32, [2]>([1, 1])];
            tensor<int32, [2]> var_3112 = const()[name = tensor<string, []>("op_3112"), val = tensor<int32, [2]>([1, 1])];
            tensor<string, []> input_211_pad_type_0 = const()[name = tensor<string, []>("input_211_pad_type_0"), val = tensor<string, []>("custom")];
            tensor<int32, [4]> input_211_pad_0 = const()[name = tensor<string, []>("input_211_pad_0"), val = tensor<int32, [4]>([1, 1, 1, 1])];
            tensor<fp16, [64, 64, 3, 3]> model_neck_fusion_stage_layers_2_residual_layer1_convolution1_weight_to_fp16 = const()[name = tensor<string, []>("model_neck_fusion_stage_layers_2_residual_layer1_convolution1_weight_to_fp16"), val = tensor<fp16, [64, 64, 3, 3]>(BLOBFILE(path = tensor<string, []>("@model_path/weights/weight.bin"), offset = tensor<uint64, []>(48754496)))];
            tensor<fp16, [64]> model_neck_fusion_stage_layers_2_residual_layer1_convolution1_bias_to_fp16 = const()[name = tensor<string, []>("model_neck_fusion_stage_layers_2_residual_layer1_convolution1_bias_to_fp16"), val = tensor<fp16, [64]>(BLOBFILE(path = tensor<string, []>("@model_path/weights/weight.bin"), offset = tensor<uint64, []>(48828288)))];
            tensor<fp16, [1, 64, 56, 74]> input_211_cast_fp16 = conv(bias = model_neck_fusion_stage_layers_2_residual_layer1_convolution1_bias_to_fp16, dilations = var_3112, groups = var_44, pad = input_211_pad_0, pad_type = input_211_pad_type_0, strides = var_3110, weight = model_neck_fusion_stage_layers_2_residual_layer1_convolution1_weight_to_fp16, x = input_209_cast_fp16)[name = tensor<string, []>("input_211_cast_fp16")];
            tensor<fp16, [1, 64, 56, 74]> input_213_cast_fp16 = relu(x = input_211_cast_fp16)[name = tensor<string, []>("input_213_cast_fp16")];
            tensor<int32, [2]> var_3118 = const()[name = tensor<string, []>("op_3118"), val = tensor<int32, [2]>([1, 1])];
            tensor<int32, [2]> var_3120 = const()[name = tensor<string, []>("op_3120"), val = tensor<int32, [2]>([1, 1])];
            tensor<string, []> hidden_state_85_pad_type_0 = const()[name = tensor<string, []>("hidden_state_85_pad_type_0"), val = tensor<string, []>("custom")];
            tensor<int32, [4]> hidden_state_85_pad_0 = const()[name = tensor<string, []>("hidden_state_85_pad_0"), val = tensor<int32, [4]>([1, 1, 1, 1])];
            tensor<fp16, [64, 64, 3, 3]> model_neck_fusion_stage_layers_2_residual_layer1_convolution2_weight_to_fp16 = const()[name = tensor<string, []>("model_neck_fusion_stage_layers_2_residual_layer1_convolution2_weight_to_fp16"), val = tensor<fp16, [64, 64, 3, 3]>(BLOBFILE(path = tensor<string, []>("@model_path/weights/weight.bin"), offset = tensor<uint64, []>(48828480)))];
            tensor<fp16, [64]> model_neck_fusion_stage_layers_2_residual_layer1_convolution2_bias_to_fp16 = const()[name = tensor<string, []>("model_neck_fusion_stage_layers_2_residual_layer1_convolution2_bias_to_fp16"), val = tensor<fp16, [64]>(BLOBFILE(path = tensor<string, []>("@model_path/weights/weight.bin"), offset = tensor<uint64, []>(48902272)))];
            tensor<fp16, [1, 64, 56, 74]> hidden_state_85_cast_fp16 = conv(bias = model_neck_fusion_stage_layers_2_residual_layer1_convolution2_bias_to_fp16, dilations = var_3120, groups = var_44, pad = hidden_state_85_pad_0, pad_type = hidden_state_85_pad_type_0, strides = var_3118, weight = model_neck_fusion_stage_layers_2_residual_layer1_convolution2_weight_to_fp16, x = input_213_cast_fp16)[name = tensor<string, []>("hidden_state_85_cast_fp16")];
            tensor<fp16, [1, 64, 56, 74]> var_3123_cast_fp16 = add(x = hidden_state_85_cast_fp16, y = residual_3_cast_fp16)[name = tensor<string, []>("op_3123_cast_fp16")];
            tensor<fp16, [1, 64, 56, 74]> input_215_cast_fp16 = add(x = hidden_state_83_cast_fp16, y = var_3123_cast_fp16)[name = tensor<string, []>("input_215_cast_fp16")];
            tensor<fp16, [1, 64, 56, 74]> input_217_cast_fp16 = relu(x = input_215_cast_fp16)[name = tensor<string, []>("input_217_cast_fp16")];
            tensor<int32, [2]> var_3130 = const()[name = tensor<string, []>("op_3130"), val = tensor<int32, [2]>([1, 1])];
            tensor<int32, [2]> var_3132 = const()[name = tensor<string, []>("op_3132"), val = tensor<int32, [2]>([1, 1])];
            tensor<string, []> input_219_pad_type_0 = const()[name = tensor<string, []>("input_219_pad_type_0"), val = tensor<string, []>("custom")];
            tensor<int32, [4]> input_219_pad_0 = const()[name = tensor<string, []>("input_219_pad_0"), val = tensor<int32, [4]>([1, 1, 1, 1])];
            tensor<fp16, [64, 64, 3, 3]> model_neck_fusion_stage_layers_2_residual_layer2_convolution1_weight_to_fp16 = const()[name = tensor<string, []>("model_neck_fusion_stage_layers_2_residual_layer2_convolution1_weight_to_fp16"), val = tensor<fp16, [64, 64, 3, 3]>(BLOBFILE(path = tensor<string, []>("@model_path/weights/weight.bin"), offset = tensor<uint64, []>(48902464)))];
            tensor<fp16, [64]> model_neck_fusion_stage_layers_2_residual_layer2_convolution1_bias_to_fp16 = const()[name = tensor<string, []>("model_neck_fusion_stage_layers_2_residual_layer2_convolution1_bias_to_fp16"), val = tensor<fp16, [64]>(BLOBFILE(path = tensor<string, []>("@model_path/weights/weight.bin"), offset = tensor<uint64, []>(48976256)))];
            tensor<fp16, [1, 64, 56, 74]> input_219_cast_fp16 = conv(bias = model_neck_fusion_stage_layers_2_residual_layer2_convolution1_bias_to_fp16, dilations = var_3132, groups = var_44, pad = input_219_pad_0, pad_type = input_219_pad_type_0, strides = var_3130, weight = model_neck_fusion_stage_layers_2_residual_layer2_convolution1_weight_to_fp16, x = input_217_cast_fp16)[name = tensor<string, []>("input_219_cast_fp16")];
            tensor<fp16, [1, 64, 56, 74]> input_221_cast_fp16 = relu(x = input_219_cast_fp16)[name = tensor<string, []>("input_221_cast_fp16")];
            tensor<int32, [2]> var_3138 = const()[name = tensor<string, []>("op_3138"), val = tensor<int32, [2]>([1, 1])];
            tensor<int32, [2]> var_3140 = const()[name = tensor<string, []>("op_3140"), val = tensor<int32, [2]>([1, 1])];
            tensor<string, []> hidden_state_87_pad_type_0 = const()[name = tensor<string, []>("hidden_state_87_pad_type_0"), val = tensor<string, []>("custom")];
            tensor<int32, [4]> hidden_state_87_pad_0 = const()[name = tensor<string, []>("hidden_state_87_pad_0"), val = tensor<int32, [4]>([1, 1, 1, 1])];
            tensor<fp16, [64, 64, 3, 3]> model_neck_fusion_stage_layers_2_residual_layer2_convolution2_weight_to_fp16 = const()[name = tensor<string, []>("model_neck_fusion_stage_layers_2_residual_layer2_convolution2_weight_to_fp16"), val = tensor<fp16, [64, 64, 3, 3]>(BLOBFILE(path = tensor<string, []>("@model_path/weights/weight.bin"), offset = tensor<uint64, []>(48976448)))];
            tensor<fp16, [64]> model_neck_fusion_stage_layers_2_residual_layer2_convolution2_bias_to_fp16 = const()[name = tensor<string, []>("model_neck_fusion_stage_layers_2_residual_layer2_convolution2_bias_to_fp16"), val = tensor<fp16, [64]>(BLOBFILE(path = tensor<string, []>("@model_path/weights/weight.bin"), offset = tensor<uint64, []>(49050240)))];
            tensor<fp16, [1, 64, 56, 74]> hidden_state_87_cast_fp16 = conv(bias = model_neck_fusion_stage_layers_2_residual_layer2_convolution2_bias_to_fp16, dilations = var_3140, groups = var_44, pad = hidden_state_87_pad_0, pad_type = hidden_state_87_pad_type_0, strides = var_3138, weight = model_neck_fusion_stage_layers_2_residual_layer2_convolution2_weight_to_fp16, x = input_221_cast_fp16)[name = tensor<string, []>("hidden_state_87_cast_fp16")];
            tensor<fp16, [1, 64, 56, 74]> input_223_cast_fp16 = add(x = hidden_state_87_cast_fp16, y = input_215_cast_fp16)[name = tensor<string, []>("input_223_cast_fp16")];
            tensor<fp32, []> input_225_scale_factor_height_0 = const()[name = tensor<string, []>("input_225_scale_factor_height_0"), val = tensor<fp32, []>(0x1p+1)];
            tensor<fp32, []> input_225_scale_factor_width_0 = const()[name = tensor<string, []>("input_225_scale_factor_width_0"), val = tensor<fp32, []>(0x1p+1)];
            tensor<bool, []> input_225_align_corners_0 = const()[name = tensor<string, []>("input_225_align_corners_0"), val = tensor<bool, []>(true)];
            tensor<fp16, [1, 64, 112, 148]> input_225_cast_fp16 = upsample_bilinear(align_corners = input_225_align_corners_0, scale_factor_height = input_225_scale_factor_height_0, scale_factor_width = input_225_scale_factor_width_0, x = input_223_cast_fp16)[name = tensor<string, []>("input_225_cast_fp16")];
            tensor<int32, [2]> var_3148 = const()[name = tensor<string, []>("op_3148"), val = tensor<int32, [2]>([1, 1])];
            tensor<int32, [2]> var_3150 = const()[name = tensor<string, []>("op_3150"), val = tensor<int32, [2]>([1, 1])];
            tensor<string, []> hidden_state_89_pad_type_0 = const()[name = tensor<string, []>("hidden_state_89_pad_type_0"), val = tensor<string, []>("custom")];
            tensor<int32, [4]> hidden_state_89_pad_0 = const()[name = tensor<string, []>("hidden_state_89_pad_0"), val = tensor<int32, [4]>([0, 0, 0, 0])];
            tensor<fp16, [64, 64, 1, 1]> model_neck_fusion_stage_layers_2_projection_weight_to_fp16 = const()[name = tensor<string, []>("model_neck_fusion_stage_layers_2_projection_weight_to_fp16"), val = tensor<fp16, [64, 64, 1, 1]>(BLOBFILE(path = tensor<string, []>("@model_path/weights/weight.bin"), offset = tensor<uint64, []>(49050432)))];
            tensor<fp16, [64]> model_neck_fusion_stage_layers_2_projection_bias_to_fp16 = const()[name = tensor<string, []>("model_neck_fusion_stage_layers_2_projection_bias_to_fp16"), val = tensor<fp16, [64]>(BLOBFILE(path = tensor<string, []>("@model_path/weights/weight.bin"), offset = tensor<uint64, []>(49058688)))];
            tensor<fp16, [1, 64, 112, 148]> hidden_state_89_cast_fp16 = conv(bias = model_neck_fusion_stage_layers_2_projection_bias_to_fp16, dilations = var_3150, groups = var_44, pad = hidden_state_89_pad_0, pad_type = hidden_state_89_pad_type_0, strides = var_3148, weight = model_neck_fusion_stage_layers_2_projection_weight_to_fp16, x = input_225_cast_fp16)[name = tensor<string, []>("hidden_state_89_cast_fp16")];
            tensor<fp16, [1, 64, 112, 148]> input_227_cast_fp16 = relu(x = residual_cast_fp16)[name = tensor<string, []>("input_227_cast_fp16")];
            tensor<int32, [2]> var_3161 = const()[name = tensor<string, []>("op_3161"), val = tensor<int32, [2]>([1, 1])];
            tensor<int32, [2]> var_3163 = const()[name = tensor<string, []>("op_3163"), val = tensor<int32, [2]>([1, 1])];
            tensor<string, []> input_229_pad_type_0 = const()[name = tensor<string, []>("input_229_pad_type_0"), val = tensor<string, []>("custom")];
            tensor<int32, [4]> input_229_pad_0 = const()[name = tensor<string, []>("input_229_pad_0"), val = tensor<int32, [4]>([1, 1, 1, 1])];
            tensor<fp16, [64, 64, 3, 3]> model_neck_fusion_stage_layers_3_residual_layer1_convolution1_weight_to_fp16 = const()[name = tensor<string, []>("model_neck_fusion_stage_layers_3_residual_layer1_convolution1_weight_to_fp16"), val = tensor<fp16, [64, 64, 3, 3]>(BLOBFILE(path = tensor<string, []>("@model_path/weights/weight.bin"), offset = tensor<uint64, []>(49058880)))];
            tensor<fp16, [64]> model_neck_fusion_stage_layers_3_residual_layer1_convolution1_bias_to_fp16 = const()[name = tensor<string, []>("model_neck_fusion_stage_layers_3_residual_layer1_convolution1_bias_to_fp16"), val = tensor<fp16, [64]>(BLOBFILE(path = tensor<string, []>("@model_path/weights/weight.bin"), offset = tensor<uint64, []>(49132672)))];
            tensor<fp16, [1, 64, 112, 148]> input_229_cast_fp16 = conv(bias = model_neck_fusion_stage_layers_3_residual_layer1_convolution1_bias_to_fp16, dilations = var_3163, groups = var_44, pad = input_229_pad_0, pad_type = input_229_pad_type_0, strides = var_3161, weight = model_neck_fusion_stage_layers_3_residual_layer1_convolution1_weight_to_fp16, x = input_227_cast_fp16)[name = tensor<string, []>("input_229_cast_fp16")];
            tensor<fp16, [1, 64, 112, 148]> input_231_cast_fp16 = relu(x = input_229_cast_fp16)[name = tensor<string, []>("input_231_cast_fp16")];
            tensor<int32, [2]> var_3169 = const()[name = tensor<string, []>("op_3169"), val = tensor<int32, [2]>([1, 1])];
            tensor<int32, [2]> var_3171 = const()[name = tensor<string, []>("op_3171"), val = tensor<int32, [2]>([1, 1])];
            tensor<string, []> hidden_state_91_pad_type_0 = const()[name = tensor<string, []>("hidden_state_91_pad_type_0"), val = tensor<string, []>("custom")];
            tensor<int32, [4]> hidden_state_91_pad_0 = const()[name = tensor<string, []>("hidden_state_91_pad_0"), val = tensor<int32, [4]>([1, 1, 1, 1])];
            tensor<fp16, [64, 64, 3, 3]> model_neck_fusion_stage_layers_3_residual_layer1_convolution2_weight_to_fp16 = const()[name = tensor<string, []>("model_neck_fusion_stage_layers_3_residual_layer1_convolution2_weight_to_fp16"), val = tensor<fp16, [64, 64, 3, 3]>(BLOBFILE(path = tensor<string, []>("@model_path/weights/weight.bin"), offset = tensor<uint64, []>(49132864)))];
            tensor<fp16, [64]> model_neck_fusion_stage_layers_3_residual_layer1_convolution2_bias_to_fp16 = const()[name = tensor<string, []>("model_neck_fusion_stage_layers_3_residual_layer1_convolution2_bias_to_fp16"), val = tensor<fp16, [64]>(BLOBFILE(path = tensor<string, []>("@model_path/weights/weight.bin"), offset = tensor<uint64, []>(49206656)))];
            tensor<fp16, [1, 64, 112, 148]> hidden_state_91_cast_fp16 = conv(bias = model_neck_fusion_stage_layers_3_residual_layer1_convolution2_bias_to_fp16, dilations = var_3171, groups = var_44, pad = hidden_state_91_pad_0, pad_type = hidden_state_91_pad_type_0, strides = var_3169, weight = model_neck_fusion_stage_layers_3_residual_layer1_convolution2_weight_to_fp16, x = input_231_cast_fp16)[name = tensor<string, []>("hidden_state_91_cast_fp16")];
            tensor<fp16, [1, 64, 112, 148]> var_3174_cast_fp16 = add(x = hidden_state_91_cast_fp16, y = residual_cast_fp16)[name = tensor<string, []>("op_3174_cast_fp16")];
            tensor<fp16, [1, 64, 112, 148]> input_233_cast_fp16 = add(x = hidden_state_89_cast_fp16, y = var_3174_cast_fp16)[name = tensor<string, []>("input_233_cast_fp16")];
            tensor<fp16, [1, 64, 112, 148]> input_235_cast_fp16 = relu(x = input_233_cast_fp16)[name = tensor<string, []>("input_235_cast_fp16")];
            tensor<int32, [2]> var_3181 = const()[name = tensor<string, []>("op_3181"), val = tensor<int32, [2]>([1, 1])];
            tensor<int32, [2]> var_3183 = const()[name = tensor<string, []>("op_3183"), val = tensor<int32, [2]>([1, 1])];
            tensor<string, []> input_237_pad_type_0 = const()[name = tensor<string, []>("input_237_pad_type_0"), val = tensor<string, []>("custom")];
            tensor<int32, [4]> input_237_pad_0 = const()[name = tensor<string, []>("input_237_pad_0"), val = tensor<int32, [4]>([1, 1, 1, 1])];
            tensor<fp16, [64, 64, 3, 3]> model_neck_fusion_stage_layers_3_residual_layer2_convolution1_weight_to_fp16 = const()[name = tensor<string, []>("model_neck_fusion_stage_layers_3_residual_layer2_convolution1_weight_to_fp16"), val = tensor<fp16, [64, 64, 3, 3]>(BLOBFILE(path = tensor<string, []>("@model_path/weights/weight.bin"), offset = tensor<uint64, []>(49206848)))];
            tensor<fp16, [64]> model_neck_fusion_stage_layers_3_residual_layer2_convolution1_bias_to_fp16 = const()[name = tensor<string, []>("model_neck_fusion_stage_layers_3_residual_layer2_convolution1_bias_to_fp16"), val = tensor<fp16, [64]>(BLOBFILE(path = tensor<string, []>("@model_path/weights/weight.bin"), offset = tensor<uint64, []>(49280640)))];
            tensor<fp16, [1, 64, 112, 148]> input_237_cast_fp16 = conv(bias = model_neck_fusion_stage_layers_3_residual_layer2_convolution1_bias_to_fp16, dilations = var_3183, groups = var_44, pad = input_237_pad_0, pad_type = input_237_pad_type_0, strides = var_3181, weight = model_neck_fusion_stage_layers_3_residual_layer2_convolution1_weight_to_fp16, x = input_235_cast_fp16)[name = tensor<string, []>("input_237_cast_fp16")];
            tensor<fp16, [1, 64, 112, 148]> input_239_cast_fp16 = relu(x = input_237_cast_fp16)[name = tensor<string, []>("input_239_cast_fp16")];
            tensor<int32, [2]> var_3189 = const()[name = tensor<string, []>("op_3189"), val = tensor<int32, [2]>([1, 1])];
            tensor<int32, [2]> var_3191 = const()[name = tensor<string, []>("op_3191"), val = tensor<int32, [2]>([1, 1])];
            tensor<string, []> hidden_state_pad_type_0 = const()[name = tensor<string, []>("hidden_state_pad_type_0"), val = tensor<string, []>("custom")];
            tensor<int32, [4]> hidden_state_pad_0 = const()[name = tensor<string, []>("hidden_state_pad_0"), val = tensor<int32, [4]>([1, 1, 1, 1])];
            tensor<fp16, [64, 64, 3, 3]> model_neck_fusion_stage_layers_3_residual_layer2_convolution2_weight_to_fp16 = const()[name = tensor<string, []>("model_neck_fusion_stage_layers_3_residual_layer2_convolution2_weight_to_fp16"), val = tensor<fp16, [64, 64, 3, 3]>(BLOBFILE(path = tensor<string, []>("@model_path/weights/weight.bin"), offset = tensor<uint64, []>(49280832)))];
            tensor<fp16, [64]> model_neck_fusion_stage_layers_3_residual_layer2_convolution2_bias_to_fp16 = const()[name = tensor<string, []>("model_neck_fusion_stage_layers_3_residual_layer2_convolution2_bias_to_fp16"), val = tensor<fp16, [64]>(BLOBFILE(path = tensor<string, []>("@model_path/weights/weight.bin"), offset = tensor<uint64, []>(49354624)))];
            tensor<fp16, [1, 64, 112, 148]> hidden_state_cast_fp16 = conv(bias = model_neck_fusion_stage_layers_3_residual_layer2_convolution2_bias_to_fp16, dilations = var_3191, groups = var_44, pad = hidden_state_pad_0, pad_type = hidden_state_pad_type_0, strides = var_3189, weight = model_neck_fusion_stage_layers_3_residual_layer2_convolution2_weight_to_fp16, x = input_239_cast_fp16)[name = tensor<string, []>("hidden_state_cast_fp16")];
            tensor<fp16, [1, 64, 112, 148]> input_241_cast_fp16 = add(x = hidden_state_cast_fp16, y = input_233_cast_fp16)[name = tensor<string, []>("input_241_cast_fp16")];
            tensor<fp32, []> input_243_scale_factor_height_0 = const()[name = tensor<string, []>("input_243_scale_factor_height_0"), val = tensor<fp32, []>(0x1p+1)];
            tensor<fp32, []> input_243_scale_factor_width_0 = const()[name = tensor<string, []>("input_243_scale_factor_width_0"), val = tensor<fp32, []>(0x1p+1)];
            tensor<bool, []> input_243_align_corners_0 = const()[name = tensor<string, []>("input_243_align_corners_0"), val = tensor<bool, []>(true)];
            tensor<fp16, [1, 64, 224, 296]> input_243_cast_fp16 = upsample_bilinear(align_corners = input_243_align_corners_0, scale_factor_height = input_243_scale_factor_height_0, scale_factor_width = input_243_scale_factor_width_0, x = input_241_cast_fp16)[name = tensor<string, []>("input_243_cast_fp16")];
            tensor<int32, [2]> var_3199 = const()[name = tensor<string, []>("op_3199"), val = tensor<int32, [2]>([1, 1])];
            tensor<int32, [2]> var_3201 = const()[name = tensor<string, []>("op_3201"), val = tensor<int32, [2]>([1, 1])];
            tensor<string, []> input_245_pad_type_0 = const()[name = tensor<string, []>("input_245_pad_type_0"), val = tensor<string, []>("custom")];
            tensor<int32, [4]> input_245_pad_0 = const()[name = tensor<string, []>("input_245_pad_0"), val = tensor<int32, [4]>([0, 0, 0, 0])];
            tensor<fp16, [64, 64, 1, 1]> model_neck_fusion_stage_layers_3_projection_weight_to_fp16 = const()[name = tensor<string, []>("model_neck_fusion_stage_layers_3_projection_weight_to_fp16"), val = tensor<fp16, [64, 64, 1, 1]>(BLOBFILE(path = tensor<string, []>("@model_path/weights/weight.bin"), offset = tensor<uint64, []>(49354816)))];
            tensor<fp16, [64]> model_neck_fusion_stage_layers_3_projection_bias_to_fp16 = const()[name = tensor<string, []>("model_neck_fusion_stage_layers_3_projection_bias_to_fp16"), val = tensor<fp16, [64]>(BLOBFILE(path = tensor<string, []>("@model_path/weights/weight.bin"), offset = tensor<uint64, []>(49363072)))];
            tensor<fp16, [1, 64, 224, 296]> input_245_cast_fp16 = conv(bias = model_neck_fusion_stage_layers_3_projection_bias_to_fp16, dilations = var_3201, groups = var_44, pad = input_245_pad_0, pad_type = input_245_pad_type_0, strides = var_3199, weight = model_neck_fusion_stage_layers_3_projection_weight_to_fp16, x = input_243_cast_fp16)[name = tensor<string, []>("input_245_cast_fp16")];
            tensor<int32, [2]> var_3209 = const()[name = tensor<string, []>("op_3209"), val = tensor<int32, [2]>([1, 1])];
            tensor<int32, [2]> var_3211 = const()[name = tensor<string, []>("op_3211"), val = tensor<int32, [2]>([1, 1])];
            tensor<string, []> input_247_pad_type_0 = const()[name = tensor<string, []>("input_247_pad_type_0"), val = tensor<string, []>("custom")];
            tensor<int32, [4]> input_247_pad_0 = const()[name = tensor<string, []>("input_247_pad_0"), val = tensor<int32, [4]>([1, 1, 1, 1])];
            tensor<fp16, [32, 64, 3, 3]> model_head_conv1_weight_to_fp16 = const()[name = tensor<string, []>("model_head_conv1_weight_to_fp16"), val = tensor<fp16, [32, 64, 3, 3]>(BLOBFILE(path = tensor<string, []>("@model_path/weights/weight.bin"), offset = tensor<uint64, []>(49363264)))];
            tensor<fp16, [32]> model_head_conv1_bias_to_fp16 = const()[name = tensor<string, []>("model_head_conv1_bias_to_fp16"), val = tensor<fp16, [32]>(BLOBFILE(path = tensor<string, []>("@model_path/weights/weight.bin"), offset = tensor<uint64, []>(49400192)))];
            tensor<fp16, [1, 32, 224, 296]> input_247_cast_fp16 = conv(bias = model_head_conv1_bias_to_fp16, dilations = var_3211, groups = var_44, pad = input_247_pad_0, pad_type = input_247_pad_type_0, strides = var_3209, weight = model_head_conv1_weight_to_fp16, x = input_245_cast_fp16)[name = tensor<string, []>("input_247_cast_fp16")];
            tensor<fp32, []> input_249_scale_factor_height_0 = const()[name = tensor<string, []>("input_249_scale_factor_height_0"), val = tensor<fp32, []>(0x1.c00008p+0)];
            tensor<fp32, []> input_249_scale_factor_width_0 = const()[name = tensor<string, []>("input_249_scale_factor_width_0"), val = tensor<fp32, []>(0x1.c00006p+0)];
            tensor<bool, []> input_249_align_corners_0 = const()[name = tensor<string, []>("input_249_align_corners_0"), val = tensor<bool, []>(true)];
            tensor<fp16, [1, 32, 392, 518]> input_249_cast_fp16 = upsample_bilinear(align_corners = input_249_align_corners_0, scale_factor_height = input_249_scale_factor_height_0, scale_factor_width = input_249_scale_factor_width_0, x = input_247_cast_fp16)[name = tensor<string, []>("input_249_cast_fp16")];
            tensor<int32, [2]> var_3218 = const()[name = tensor<string, []>("op_3218"), val = tensor<int32, [2]>([1, 1])];
            tensor<int32, [2]> var_3220 = const()[name = tensor<string, []>("op_3220"), val = tensor<int32, [2]>([1, 1])];
            tensor<string, []> input_251_pad_type_0 = const()[name = tensor<string, []>("input_251_pad_type_0"), val = tensor<string, []>("custom")];
            tensor<int32, [4]> input_251_pad_0 = const()[name = tensor<string, []>("input_251_pad_0"), val = tensor<int32, [4]>([1, 1, 1, 1])];
            tensor<fp16, [32, 32, 3, 3]> model_head_conv2_weight_to_fp16 = const()[name = tensor<string, []>("model_head_conv2_weight_to_fp16"), val = tensor<fp16, [32, 32, 3, 3]>(BLOBFILE(path = tensor<string, []>("@model_path/weights/weight.bin"), offset = tensor<uint64, []>(49400320)))];
            tensor<fp16, [32]> model_head_conv2_bias_to_fp16 = const()[name = tensor<string, []>("model_head_conv2_bias_to_fp16"), val = tensor<fp16, [32]>(BLOBFILE(path = tensor<string, []>("@model_path/weights/weight.bin"), offset = tensor<uint64, []>(49418816)))];
            tensor<fp16, [1, 32, 392, 518]> input_251_cast_fp16 = conv(bias = model_head_conv2_bias_to_fp16, dilations = var_3220, groups = var_44, pad = input_251_pad_0, pad_type = input_251_pad_type_0, strides = var_3218, weight = model_head_conv2_weight_to_fp16, x = input_249_cast_fp16)[name = tensor<string, []>("input_251_cast_fp16")];
            tensor<fp16, [1, 32, 392, 518]> input_253_cast_fp16 = relu(x = input_251_cast_fp16)[name = tensor<string, []>("input_253_cast_fp16")];
            tensor<int32, [2]> var_3226 = const()[name = tensor<string, []>("op_3226"), val = tensor<int32, [2]>([1, 1])];
            tensor<int32, [2]> var_3228 = const()[name = tensor<string, []>("op_3228"), val = tensor<int32, [2]>([1, 1])];
            tensor<string, []> input_pad_type_0 = const()[name = tensor<string, []>("input_pad_type_0"), val = tensor<string, []>("custom")];
            tensor<int32, [4]> input_pad_0 = const()[name = tensor<string, []>("input_pad_0"), val = tensor<int32, [4]>([0, 0, 0, 0])];
            tensor<fp16, [1, 32, 1, 1]> model_head_conv3_weight_to_fp16 = const()[name = tensor<string, []>("model_head_conv3_weight_to_fp16"), val = tensor<fp16, [1, 32, 1, 1]>(BLOBFILE(path = tensor<string, []>("@model_path/weights/weight.bin"), offset = tensor<uint64, []>(49418944)))];
            tensor<fp16, [1]> model_head_conv3_bias_to_fp16 = const()[name = tensor<string, []>("model_head_conv3_bias_to_fp16"), val = tensor<fp16, [1]>([0x1.6b4p-4])];
            tensor<fp16, [1, 1, 392, 518]> input_cast_fp16 = conv(bias = model_head_conv3_bias_to_fp16, dilations = var_3228, groups = var_44, pad = input_pad_0, pad_type = input_pad_type_0, strides = var_3226, weight = model_head_conv3_weight_to_fp16, x = input_253_cast_fp16)[name = tensor<string, []>("input_cast_fp16")];
            tensor<fp16, [1, 1, 392, 518]> predicted_depth_cast_fp16 = relu(x = input_cast_fp16)[name = tensor<string, []>("predicted_depth_cast_fp16")];
            tensor<int32, [1]> var_3232_axes_0 = const()[name = tensor<string, []>("op_3232_axes_0"), val = tensor<int32, [1]>([1])];
            tensor<fp16, [1, 392, 518]> var_3232_cast_fp16 = squeeze(axes = var_3232_axes_0, x = predicted_depth_cast_fp16)[name = tensor<string, []>("op_3232_cast_fp16")];
            tensor<bool, []> var_3233_keep_dims_0 = const()[name = tensor<string, []>("op_3233_keep_dims_0"), val = tensor<bool, []>(false)];
            tensor<fp16, []> var_3233_cast_fp16 = reduce_max(keep_dims = var_3233_keep_dims_0, x = var_3232_cast_fp16)[name = tensor<string, []>("op_3233_cast_fp16")];
            tensor<fp16, [1, 392, 518]> normalized_cast_fp16 = real_div(x = var_3232_cast_fp16, y = var_3233_cast_fp16)[name = tensor<string, []>("normalized_cast_fp16")];
            tensor<int32, [1]> var_3236_axes_0 = const()[name = tensor<string, []>("op_3236_axes_0"), val = tensor<int32, [1]>([0])];
            tensor<fp16, [1, 1, 392, 518]> depth = expand_dims(axes = var_3236_axes_0, x = normalized_cast_fp16)[name = tensor<string, []>("op_3236_cast_fp16")];
        } -> (depth);
}